{"format": "layers-model", "generatedBy": "keras v2.13.1", "convertedBy": "TensorFlow.js Converter v3.20.0", "modelTopology": {"keras_version": "2.13.1", "backend": "tensorflow", "model_config": {"class_name": "Functional", "config": {"name": "BirdNET", "trainable": true, "layers": [{"class_name": "InputLayer", "config": {"batch_input_shape": [null, 144000], "dtype": "float32", "sparse": false, "ragged": false, "name": "INPUT"}, "name": "INPUT", "inbound_nodes": []}, {"class_name": "MelSpecLayerSimple", "config": {"name": "MEL_SPEC1", "trainable": true, "dtype": "float32", "data_format": "channels_last", "sample_rate": 48000, "spec_shape": [96, 512], "frame_step": 278, "fmin": 0, "fmax": 3000, "frame_length": 2048, "mel_filterbank": [[… "name": "MEL_SPEC1", "inbound_nodes": [[["INPUT", 0, 0, {}]]]}, {"class_name": "MelSpecLayerSimple", "config": {"name": "MEL_SPEC2", "trainable": true, "dtype": "float32", "data_format": "channels_last", "sample_rate": 48000, "spec_shape": [96, 512], "frame_step": 280, "fmin": 500, "fmax": 15000, "frame_length": 1024, "mel_filterbank": [[… "name": "MEL_SPEC2", "inbound_nodes": [[["INPUT", 0, 0, {}]]]}, {"class_name": "Concatenate", "config": {"name": "concatenate", "trainable": true, "dtype": "float32", "axis": -1}, "name": "concatenate", "inbound_nodes": [[["MEL_SPEC1", 0, 0, {}], ["MEL_SPEC2", 0, 0, {}]]]}, {"class_name": "BatchNormalization", "config": {"name": "BNORM_SPEC_NOQUANT", "trainable": true, "dtype": "float32", "axis": [3], "momentum": 0.99, "epsilon": 0.001, "center": true, "scale": true, "beta_initializer": {"module": "keras.initializers", "class_name": "Zeros", "config": {}, "registered_name": null}, "gamma_initializer": {"module": "keras.initializers", "class_name": "Ones", "config": {}, "registered_name": null}, "moving_mean_initializer": {"module": "keras.initializers", "class_name": "Zeros", "config": {}, "registered_name": null}, "moving_variance_initializer": {"module": "keras.initializers", "class_name": "Ones", "config": {}, "registered_name": null}, "beta_regularizer": null, "gamma_regularizer": null, "beta_constraint": null, "gamma_constraint": null}, "name": "BNORM_SPEC_NOQUANT", "inbound_nodes": [[["concatenate", 0, 0, {}]]]}, {"class_name": "Conv2D", "config": {"name": "CONV_0", "trainable": true, "dtype": "float32", "filters": 24, "kernel_size": [4, 8], "strides": [2, 2], "padding": "same", "data_format": "channels_last", "dilation_rate": [1, 1], "groups": 1, "activation": "linear", "use_bias": false, "kernel_initializer": {"module": "keras.initializers", "class_name": "HeNormal", "config": {"seed": 42}, "registered_name": null}, "bias_initializer": {"module": "keras.initializers", "class_name": "Zeros", "config": {}, "registered_name": null}, "kernel_regularizer": null, "bias_regularizer": null, "activity_regularizer": null, "kernel_constraint": null, "bias_constraint": null}, "name": "CONV_0", "inbound_nodes": [[["BNORM_SPEC_NOQUANT", 0, 0, {}]]]}, {"class_name": "BatchNormalization", "config": {"name": "BNORM_0", "trainable": true, "dtype": "float32", "axis": [3], "momentum": 0.99, "epsilon": 0.001, "center": true, "scale": true, "beta_initializer": {"module": "keras.initializers", "class_name": "Zeros", "config": {}, "registered_name": null}, "gamma_initializer": {"module": "keras.initializers", "class_name": "Ones", "config": {}, "registered_name": null}, "moving_mean_initializer": {"module": "keras.initializers", "class_name": "Zeros", "config": {}, "registered_name": null}, "moving_variance_initializer": {"module": "keras.initializers", "class_name": "Ones", "config": {}, "registered_name": null}, "beta_regularizer": null, "gamma_regularizer": null, "beta_constraint": null, "gamma_constraint": null}, "name": "BNORM_0", "inbound_nodes": [[["CONV_0", 0, 0, {}]]]}, {"class_name": "Activation", "config": {"name": "ACT_0", "trainable": true, "dtype": "float32", "activation": "relu"}, "name": "ACT_0", "inbound_nodes": [[["BNORM_0", 0, 0, {}]]]}, {"class_name": "MaxPooling2D", "config": {"name": "POOL_0_MAX", "trainable": true, "dtype": "float32", "pool_size": [1, 2], "padding": "valid", "strides": [1, 2], "data_format": "channels_last"}, "name": "POOL_0_MAX", "inbound_nodes": [[["ACT_0", 0, 0, {}]]]}, {"class_name": "AveragePooling2D", "config": {"name": "POOL_0_AVG", "trainable": true, "dtype": "float32", "pool_size": [1, 2], "padding": "valid", "strides": [1, 2], "data_format": "channels_last"}, "name": "POOL_0_AVG", "inbound_nodes": [[["ACT_0", 0, 0, {}]]]}, {"class_name": "Concatenate", "config": {"name": "POOL_0_CONCAT", "trainable": true, "dtype": "float32", "axis": -1}, "name": "POOL_0_CONCAT", "inbound_nodes": [[["POOL_0_MAX", 0, 0, {}], ["POOL_0_AVG", 0, 0, {}]]]}, {"class_name": "Activation", "config": {"name": "POOL_0_ACT_QUANT", "trainable": true, "dtype": "float32", "activation": "linear"}, "name": "POOL_0_ACT_QUANT", "inbound_nodes": [[["POOL_0_CONCAT", 0, 0, {}]]]}, {"class_name": "Conv2D", "config": {"name": "POOL_0_CONV", "trainable": true, "dtype": "float32", "filters": 24, "kernel_size": [1, 1], "strides": [1, 1], "padding": "valid", "data_format": "channels_last", "dilation_rate": [1, 1], "groups": 1, "activation": "linear", "use_bias": true, "kernel_initializer": {"module": "keras.initializers", "class_name": "GlorotUniform", "config": {"seed": null}, "registered_name": null}, "bias_initializer": {"module": "keras.initializers", "class_name": "Zeros", "config": {}, "registered_name": null}, "kernel_regularizer": null, "bias_regularizer": null, "activity_regularizer": null, "kernel_constraint": null, "bias_constraint": null}, "name": "POOL_0_CONV", "inbound_nodes": [[["POOL_0_ACT_QUANT", 0, 0, {}]]]}, {"class_name": "Conv2D", "config": {"name": "BLOCK_1-1_CONV_1", "trainable": true, "dtype": "float32", "filters": 72, "kernel_size": [1, 1], "strides": [1, 1], "padding": "same", "data_format": "channels_last", "dilation_rate": [1, 1], "groups": 1, "activation": "linear", "use_bias": false, "kernel_initializer": {"module": "keras.initializers", "class_name": "VarianceScaling", "config": {"scale": 2.0, "mode": "fan_out", "distribution": "truncated_normal", "seed": null}, "registered_name": null}, "bias_initializer": {"module": "keras.initializers", "class_name": "Zeros", "config": {}, "registered_name": null}, "kernel_regularizer": null, "bias_regularizer": null, "activity_regularizer": null, "kernel_constraint": null, "bias_constraint": null}, "name": "BLOCK_1-1_CONV_1", "inbound_nodes": [[["POOL_0_CONV", 0, 0, {}]]]}, {"class_name": "BatchNormalization", "config": {"name": "BLOCK_1-1_BN_1", "trainable": true, "dtype": "float32", "axis": [3], "momentum": 0.999, "epsilon": 0.001, "center": true, "scale": true, "beta_initializer": {"module": "keras.initializers", "class_name": "Zeros", "config": {}, "registered_name": null}, "gamma_initializer": {"module": "keras.initializers", "class_name": "Ones", "config": {}, "registered_name": null}, "moving_mean_initializer": {"module": "keras.initializers", "class_name": "Zeros", "config": {}, "registered_name": null}, "moving_variance_initializer": {"module": "keras.initializers", "class_name": "Ones", "config": {}, "registered_name": null}, "beta_regularizer": null, "gamma_regularizer": null, "beta_constraint": null, "gamma_constraint": null}, "name": "BLOCK_1-1_BN_1", "inbound_nodes": [[["BLOCK_1-1_CONV_1", 0, 0, {}]]]}, {"class_name": "Activation", "config": {"name": "BLOCK_1-1_ACT_1", "trainable": true, "dtype": "float32", "activation": "swish"}, "name": "BLOCK_1-1_ACT_1", "inbound_nodes": [[["BLOCK_1-1_BN_1", 0, 0, {}]]]}, {"class_name": "ZeroPadding2D", "config": {"name": "BLOCK_1-1_PAD", "trainable": true, "dtype": "float32", "padding": [[1, 1], [1, 1]], "data_format": "channels_last"}, "name": "BLOCK_1-1_PAD", "inbound_nodes": [[["BLOCK_1-1_ACT_1", 0, 0, {}]]]}, {"class_name": "DepthwiseConv2D", "config": {"name": "BLOCK_1-1_CONV_2", "trainable": true, "dtype": "float32", "kernel_size": [3, 3], "strides": [2, 2], "padding": "valid", "data_format": "channels_last", "dilation_rate": [1, 1], "groups": 1, "activation": "linear", "use_bias": false, "bias_initializer": {"module": "keras.initializers", "class_name": "Zeros", "config": {}, "registered_name": null}, "bias_regularizer": null, "activity_regularizer": null, "bias_constraint": null, "depth_multiplier": 1, "depthwise_initializer": {"module": "keras.initializers", "class_name": "GlorotUniform", "config": {"seed": null}, "registered_name": null}, "depthwise_regularizer": null, "depthwise_constraint": null}, "name": "BLOCK_1-1_CONV_2", "inbound_nodes": [[["BLOCK_1-1_PAD", 0, 0, {}]]]}, {"class_name": "BatchNormalization", "config": {"name": "BLOCK_1-1_BN_2", "trainable": true, "dtype": "float32", "axis": [3], "momentum": 0.999, "epsilon": 0.001, "center": true, "scale": true, "beta_initializer": {"module": "keras.initializers", "class_name": "Zeros", "config": {}, "registered_name": null}, "gamma_initializer": {"module": "keras.initializers", "class_name": "Ones", "config": {}, "registered_name": null}, "moving_mean_initializer": {"module": "keras.initializers", "class_name": "Zeros", "config": {}, "registered_name": null}, "moving_variance_initializer": {"module": "keras.initializers", "class_name": "Ones", "config": {}, "registered_name": null}, "beta_regularizer": null, "gamma_regularizer": null, "beta_constraint": null, "gamma_constraint": null}, "name": "BLOCK_1-1_BN_2", "inbound_nodes": [[["BLOCK_1-1_CONV_2", 0, 0, {}]]]}, {"class_name": "Activation", "config": {"name": "BLOCK_1-1_ACT_2", "trainable": true, "dtype": "float32", "activation": "swish"}, "name": "BLOCK_1-1_ACT_2", "inbound_nodes": [[["BLOCK_1-1_BN_2", 0, 0, {}]]]}, {"class_name": "Conv2D", "config": {"name": "BLOCK_1-1_CONV_3", "trainable": true, "dtype": "float32", "filters": 36, "kernel_size": [1, 1], "strides": [1, 1], "padding": "same", "data_format": "channels_last", "dilation_rate": [1, 1], "groups": 1, "activation": "linear", "use_bias": false, "kernel_initializer": {"module": "keras.initializers", "class_name": "VarianceScaling", "config": {"scale": 2.0, "mode": "fan_out", "distribution": "truncated_normal", "seed": null}, "registered_name": null}, "bias_initializer": {"module": "keras.initializers", "class_name": "Zeros", "config": {}, "registered_name": null}, "kernel_regularizer": null, "bias_regularizer": null, "activity_regularizer": null, "kernel_constraint": null, "bias_constraint": null}, "name": "BLOCK_1-1_CONV_3", "inbound_nodes": [[["BLOCK_1-1_ACT_2", 0, 0, {}]]]}, {"class_name": "Conv2D", "config": {"name": "BLOCK_1-2_CONV_1", "trainable": true, "dtype": "float32", "filters": 72, "kernel_size": [1, 1], "strides": [1, 1], "padding": "same", "data_format": "channels_last", "dilation_rate": [1, 1], "groups": 1, "activation": "linear", "use_bias": false, "kernel_initializer": {"module": "keras.initializers", "class_name": "VarianceScaling", "config": {"scale": 2.0, "mode": "fan_out", "distribution": "truncated_normal", "seed": null}, "registered_name": null}, "bias_initializer": {"module": "keras.initializers", "class_name": "Zeros", "config": {}, "registered_name": null}, "kernel_regularizer": null, "bias_regularizer": null, "activity_regularizer": null, "kernel_constraint": null, "bias_constraint": null}, "name": "BLOCK_1-2_CONV_1", "inbound_nodes": [[["BLOCK_1-1_CONV_3", 0, 0, {}]]]}, {"class_name": "BatchNormalization", "config": {"name": "BLOCK_1-2_BN_1", "trainable": true, "dtype": "float32", "axis": [3], "momentum": 0.999, "epsilon": 0.001, "center": true, "scale": true, "beta_initializer": {"module": "keras.initializers", "class_name": "Zeros", "config": {}, "registered_name": null}, "gamma_initializer": {"module": "keras.initializers", "class_name": "Ones", "config": {}, "registered_name": null}, "moving_mean_initializer": {"module": "keras.initializers", "class_name": "Zeros", "config": {}, "registered_name": null}, "moving_variance_initializer": {"module": "keras.initializers", "class_name": "Ones", "config": {}, "registered_name": null}, "beta_regularizer": null, "gamma_regularizer": null, "beta_constraint": null, "gamma_constraint": null}, "name": "BLOCK_1-2_BN_1", "inbound_nodes": [[["BLOCK_1-2_CONV_1", 0, 0, {}]]]}, {"class_name": "Activation", "config": {"name": "BLOCK_1-2_ACT_1", "trainable": true, "dtype": "float32", "activation": "swish"}, "name": "BLOCK_1-2_ACT_1", "inbound_nodes": [[["BLOCK_1-2_BN_1", 0, 0, {}]]]}, {"class_name": "DepthwiseConv2D", "config": {"name": "BLOCK_1-2_CONV_2", "trainable": true, "dtype": "float32", "kernel_size": [3, 3], "strides": [1, 1], "padding": "same", "data_format": "channels_last", "dilation_rate": [1, 1], "groups": 1, "activation": "linear", "use_bias": false, "bias_initializer": {"module": "keras.initializers", "class_name": "Zeros", "config": {}, "registered_name": null}, "bias_regularizer": null, "activity_regularizer": null, "bias_constraint": null, "depth_multiplier": 1, "depthwise_initializer": {"module": "keras.initializers", "class_name": "GlorotUniform", "config": {"seed": null}, "registered_name": null}, "depthwise_regularizer": null, "depthwise_constraint": null}, "name": "BLOCK_1-2_CONV_2", "inbound_nodes": [[["BLOCK_1-2_ACT_1", 0, 0, {}]]]}, {"class_name": "BatchNormalization", "config": {"name": "BLOCK_1-2_BN_2", "trainable": true, "dtype": "float32", "axis": [3], "momentum": 0.999, "epsilon": 0.001, "center": true, "scale": true, "beta_initializer": {"module": "keras.initializers", "class_name": "Zeros", "config": {}, "registered_name": null}, "gamma_initializer": {"module": "keras.initializers", "class_name": "Ones", "config": {}, "registered_name": null}, "moving_mean_initializer": {"module": "keras.initializers", "class_name": "Zeros", "config": {}, "registered_name": null}, "moving_variance_initializer": {"module": "keras.initializers", "class_name": "Ones", "config": {}, "registered_name": null}, "beta_regularizer": null, "gamma_regularizer": null, "beta_constraint": null, "gamma_constraint": null}, "name": "BLOCK_1-2_BN_2", "inbound_nodes": [[["BLOCK_1-2_CONV_2", 0, 0, {}]]]}, {"class_name": "Activation", "config": {"name": "BLOCK_1-2_ACT_2", "trainable": true, "dtype": "float32", "activation": "swish"}, "name": "BLOCK_1-2_ACT_2", "inbound_nodes": [[["BLOCK_1-2_BN_2", 0, 0, {}]]]}, {"class_name": "Conv2D", "config": {"name": "BLOCK_1-2_CONV_3", "trainable": true, "dtype": "float32", "filters": 36, "kernel_size": [1, 1], "strides": [1, 1], "padding": "same", "data_format": "channels_last", "dilation_rate": [1, 1], "groups": 1, "activation": "linear", "use_bias": false, "kernel_initializer": {"module": "keras.initializers", "class_name": "VarianceScaling", "config": {"scale": 2.0, "mode": "fan_out", "distribution": "truncated_normal", "seed": null}, "registered_name": null}, "bias_initializer": {"module": "keras.initializers", "class_name": "Zeros", "config": {}, "registered_name": null}, "kernel_regularizer": null, "bias_regularizer": null, "activity_regularizer": null, "kernel_constraint": null, "bias_constraint": null}, "name": "BLOCK_1-2_CONV_3", "inbound_nodes": [[["BLOCK_1-2_ACT_2", 0, 0, {}]]]}, {"class_name": "Dropout", "config": {"name": "BLOCK_1-2_DO", "trainable": true, "dtype": "float32", "rate": 0.1, "noise_shape": [null, 1, 1, 1], "seed": null}, "name": "BLOCK_1-2_DO", "inbound_nodes": [[["BLOCK_1-2_CONV_3", 0, 0, {}]]]}, {"class_name": "Add", "config": {"name": "BLOCK_1-2_ADD", "trainable": true, "dtype": "float32"}, "name": "BLOCK_1-2_ADD", "inbound_nodes": [[["BLOCK_1-2_DO", 0, 0, {}], ["BLOCK_1-1_CONV_3", 0, 0, {}]]]}, {"class_name": "Conv2D", "config": {"name": "BLOCK_1-3_CONV_1", "trainable": true, "dtype": "float32", "filters": 72, "kernel_size": [1, 1], "strides": [1, 1], "padding": "same", "data_format": "channels_last", "dilation_rate": [1, 1], "groups": 1, "activation": "linear", "use_bias": false, "kernel_initializer": {"module": "keras.initializers", "class_name": "VarianceScaling", "config": {"scale": 2.0, "mode": "fan_out", "distribution": "truncated_normal", "seed": null}, "registered_name": null}, "bias_initializer": {"module": "keras.initializers", "class_name": "Zeros", "config": {}, "registered_name": null}, "kernel_regularizer": null, "bias_regularizer": null, "activity_regularizer": null, "kernel_constraint": null, "bias_constraint": null}, "name": "BLOCK_1-3_CONV_1", "inbound_nodes": [[["BLOCK_1-2_ADD", 0, 0, {}]]]}, {"class_name": "BatchNormalization", "config": {"name": "BLOCK_1-3_BN_1", "trainable": true, "dtype": "float32", "axis": [3], "momentum": 0.999, "epsilon": 0.001, "center": true, "scale": true, "beta_initializer": {"module": "keras.initializers", "class_name": "Zeros", "config": {}, "registered_name": null}, "gamma_initializer": {"module": "keras.initializers", "class_name": "Ones", "config": {}, "registered_name": null}, "moving_mean_initializer": {"module": "keras.initializers", "class_name": "Zeros", "config": {}, "registered_name": null}, "moving_variance_initializer": {"module": "keras.initializers", "class_name": "Ones", "config": {}, "registered_name": null}, "beta_regularizer": null, "gamma_regularizer": null, "beta_constraint": null, "gamma_constraint": null}, "name": "BLOCK_1-3_BN_1", "inbound_nodes": [[["BLOCK_1-3_CONV_1", 0, 0, {}]]]}, {"class_name": "Activation", "config": {"name": "BLOCK_1-3_ACT_1", "trainable": true, "dtype": "float32", "activation": "swish"}, "name": "BLOCK_1-3_ACT_1", "inbound_nodes": [[["BLOCK_1-3_BN_1", 0, 0, {}]]]}, {"class_name": "DepthwiseConv2D", "config": {"name": "BLOCK_1-3_CONV_2", "trainable": true, "dtype": "float32", "kernel_size": [3, 3], "strides": [1, 1], "padding": "same", "data_format": "channels_last", "dilation_rate": [1, 1], "groups": 1, "activation": "linear", "use_bias": false, "bias_initializer": {"module": "keras.initializers", "class_name": "Zeros", "config": {}, "registered_name": null}, "bias_regularizer": null, "activity_regularizer": null, "bias_constraint": null, "depth_multiplier": 1, "depthwise_initializer": {"module": "keras.initializers", "class_name": "GlorotUniform", "config": {"seed": null}, "registered_name": null}, "depthwise_regularizer": null, "depthwise_constraint": null}, "name": "BLOCK_1-3_CONV_2", "inbound_nodes": [[["BLOCK_1-3_ACT_1", 0, 0, {}]]]}, {"class_name": "BatchNormalization", "config": {"name": "BLOCK_1-3_BN_2", "trainable": true, "dtype": "float32", "axis": [3], "momentum": 0.999, "epsilon": 0.001, "center": true, "scale": true, "beta_initializer": {"module": "keras.initializers", "class_name": "Zeros", "config": {}, "registered_name": null}, "gamma_initializer": {"module": "keras.initializers", "class_name": "Ones", "config": {}, "registered_name": null}, "moving_mean_initializer": {"module": "keras.initializers", "class_name": "Zeros", "config": {}, "registered_name": null}, "moving_variance_initializer": {"module": "keras.initializers", "class_name": "Ones", "config": {}, "registered_name": null}, "beta_regularizer": null, "gamma_regularizer": null, "beta_constraint": null, "gamma_constraint": null}, "name": "BLOCK_1-3_BN_2", "inbound_nodes": [[["BLOCK_1-3_CONV_2", 0, 0, {}]]]}, {"class_name": "Activation", "config": {"name": "BLOCK_1-3_ACT_2", "trainable": true, "dtype": "float32", "activation": "swish"}, "name": "BLOCK_1-3_ACT_2", "inbound_nodes": [[["BLOCK_1-3_BN_2", 0, 0, {}]]]}, {"class_name": "Conv2D", "config": {"name": "BLOCK_1-3_CONV_3", "trainable": true, "dtype": "float32", "filters": 36, "kernel_size": [1, 1], "strides": [1, 1], "padding": "same", "data_format": "channels_last", "dilation_rate": [1, 1], "groups": 1, "activation": "linear", "use_bias": false, "kernel_initializer": {"module": "keras.initializers", "class_name": "VarianceScaling", "config": {"scale": 2.0, "mode": "fan_out", "distribution": "truncated_normal", "seed": null}, "registered_name": null}, "bias_initializer": {"module": "keras.initializers", "class_name": "Zeros", "config": {}, "registered_name": null}, "kernel_regularizer": null, "bias_regularizer": null, "activity_regularizer": null, "kernel_constraint": null, "bias_constraint": null}, "name": "BLOCK_1-3_CONV_3", "inbound_nodes": [[["BLOCK_1-3_ACT_2", 0, 0, {}]]]}, {"class_name": "Dropout", "config": {"name": "BLOCK_1-3_DO", "trainable": true, "dtype": "float32", "rate": 0.1, "noise_shape": [null, 1, 1, 1], "seed": null}, "name": "BLOCK_1-3_DO", "inbound_nodes": [[["BLOCK_1-3_CONV_3", 0, 0, {}]]]}, {"class_name": "Add", "config": {"name": "BLOCK_1-3_ADD", "trainable": true, "dtype": "float32"}, "name": "BLOCK_1-3_ADD", "inbound_nodes": [[["BLOCK_1-3_DO", 0, 0, {}], ["BLOCK_1-2_ADD", 0, 0, {}]]]}, {"class_name": "Conv2D", "config": {"name": "BLOCK_2-1_CONV_1", "trainable": true, "dtype": "float32", "filters": 288, "kernel_size": [1, 1], "strides": [1, 1], "padding": "same", "data_format": "channels_last", "dilation_rate": [1, 1], "groups": 1, "activation": "linear", "use_bias": false, "kernel_initializer": {"module": "keras.initializers", "class_name": "VarianceScaling", "config": {"scale": 2.0, "mode": "fan_out", "distribution": "truncated_normal", "seed": null}, "registered_name": null}, "bias_initializer": {"module": "keras.initializers", "class_name": "Zeros", "config": {}, "registered_name": null}, "kernel_regularizer": null, "bias_regularizer": null, "activity_regularizer": null, "kernel_constraint": null, "bias_constraint": null}, "name": "BLOCK_2-1_CONV_1", "inbound_nodes": [[["BLOCK_1-3_ADD", 0, 0, {}]]]}, {"class_name": "BatchNormalization", "config": {"name": "BLOCK_2-1_BN_1", "trainable": true, "dtype": "float32", "axis": [3], "momentum": 0.999, "epsilon": 0.001, "center": true, "scale": true, "beta_initializer": {"module": "keras.initializers", "class_name": "Zeros", "config": {}, "registered_name": null}, "gamma_initializer": {"module": "keras.initializers", "class_name": "Ones", "config": {}, "registered_name": null}, "moving_mean_initializer": {"module": "keras.initializers", "class_name": "Zeros", "config": {}, "registered_name": null}, "moving_variance_initializer": {"module": "keras.initializers", "class_name": "Ones", "config": {}, "registered_name": null}, "beta_regularizer": null, "gamma_regularizer": null, "beta_constraint": null, "gamma_constraint": null}, "name": "BLOCK_2-1_BN_1", "inbound_nodes": [[["BLOCK_2-1_CONV_1", 0, 0, {}]]]}, {"class_name": "Activation", "config": {"name": "BLOCK_2-1_ACT_1", "trainable": true, "dtype": "float32", "activation": "swish"}, "name": "BLOCK_2-1_ACT_1", "inbound_nodes": [[["BLOCK_2-1_BN_1", 0, 0, {}]]]}, {"class_name": "ZeroPadding2D", "config": {"name": "BLOCK_2-1_PAD", "trainable": true, "dtype": "float32", "padding": [[1, 1], [1, 1]], "data_format": "channels_last"}, "name": "BLOCK_2-1_PAD", "inbound_nodes": [[["BLOCK_2-1_ACT_1", 0, 0, {}]]]}, {"class_name": "DepthwiseConv2D", "config": {"name": "BLOCK_2-1_CONV_2", "trainable": true, "dtype": "float32", "kernel_size": [3, 3], "strides": [2, 2], "padding": "valid", "data_format": "channels_last", "dilation_rate": [1, 1], "groups": 1, "activation": "linear", "use_bias": false, "bias_initializer": {"module": "keras.initializers", "class_name": "Zeros", "config": {}, "registered_name": null}, "bias_regularizer": null, "activity_regularizer": null, "bias_constraint": null, "depth_multiplier": 1, "depthwise_initializer": {"module": "keras.initializers", "class_name": "GlorotUniform", "config": {"seed": null}, "registered_name": null}, "depthwise_regularizer": null, "depthwise_constraint": null}, "name": "BLOCK_2-1_CONV_2", "inbound_nodes": [[["BLOCK_2-1_PAD", 0, 0, {}]]]}, {"class_name": "BatchNormalization", "config": {"name": "BLOCK_2-1_BN_2", "trainable": true, "dtype": "float32", "axis": [3], "momentum": 0.999, "epsilon": 0.001, "center": true, "scale": true, "beta_initializer": {"module": "keras.initializers", "class_name": "Zeros", "config": {}, "registered_name": null}, "gamma_initializer": {"module": "keras.initializers", "class_name": "Ones", "config": {}, "registered_name": null}, "moving_mean_initializer": {"module": "keras.initializers", "class_name": "Zeros", "config": {}, "registered_name": null}, "moving_variance_initializer": {"module": "keras.initializers", "class_name": "Ones", "config": {}, "registered_name": null}, "beta_regularizer": null, "gamma_regularizer": null, "beta_constraint": null, "gamma_constraint": null}, "name": "BLOCK_2-1_BN_2", "inbound_nodes": [[["BLOCK_2-1_CONV_2", 0, 0, {}]]]}, {"class_name": "Activation", "config": {"name": "BLOCK_2-1_ACT_2", "trainable": true, "dtype": "float32", "activation": "swish"}, "name": "BLOCK_2-1_ACT_2", "inbound_nodes": [[["BLOCK_2-1_BN_2", 0, 0, {}]]]}, {"class_name": "GlobalAveragePooling2D", "config": {"name": "BLOCK_2-1_SE_AVG_POOL_1", "trainable": true, "dtype": "float32", "data_format": "channels_last", "keepdims": false}, "name": "BLOCK_2-1_SE_AVG_POOL_1", "inbound_nodes": [[["BLOCK_2-1_ACT_2", 0, 0, {}]]]}, {"class_name": "Reshape", "config": {"name": "BLOCK_2-1_SE_RESHAPE", "trainable": true, "dtype": "float32", "target_shape": [1, 1, 288]}, "name": "BLOCK_2-1_SE_RESHAPE", "inbound_nodes": [[["BLOCK_2-1_SE_AVG_POOL_1", 0, 0, {}]]]}, {"class_name": "Conv2D", "config": {"name": "BLOCK_2-1_SE_CONV_1", "trainable": true, "dtype": "float32", "filters": 18, "kernel_size": [1, 1], "strides": [1, 1], "padding": "same", "data_format": "channels_last", "dilation_rate": [1, 1], "groups": 1, "activation": "swish", "use_bias": false, "kernel_initializer": {"module": "keras.initializers", "class_name": "VarianceScaling", "config": {"scale": 2.0, "mode": "fan_out", "distribution": "truncated_normal", "seed": null}, "registered_name": null}, "bias_initializer": {"module": "keras.initializers", "class_name": "Zeros", "config": {}, "registered_name": null}, "kernel_regularizer": null, "bias_regularizer": null, "activity_regularizer": null, "kernel_constraint": null, "bias_constraint": null}, "name": "BLOCK_2-1_SE_CONV_1", "inbound_nodes": [[["BLOCK_2-1_SE_RESHAPE", 0, 0, {}]]]}, {"class_name": "Conv2D", "config": {"name": "BLOCK_2-1_SE_CONV_2", "trainable": true, "dtype": "float32", "filters": 288, "kernel_size": [1, 1], "strides": [1, 1], "padding": "same", "data_format": "channels_last", "dilation_rate": [1, 1], "groups": 1, "activation": "sigmoid", "use_bias": false, "kernel_initializer": {"module": "keras.initializers", "class_name": "VarianceScaling", "config": {"scale": 2.0, "mode": "fan_out", "distribution": "truncated_normal", "seed": null}, "registered_name": null}, "bias_initializer": {"module": "keras.initializers", "class_name": "Zeros", "config": {}, "registered_name": null}, "kernel_regularizer": null, "bias_regularizer": null, "activity_regularizer": null, "kernel_constraint": null, "bias_constraint": null}, "name": "BLOCK_2-1_SE_CONV_2", "inbound_nodes": [[["BLOCK_2-1_SE_CONV_1", 0, 0, {}]]]}, {"class_name": "Multiply", "config": {"name": "BLOCK_2-1_MULTIPLY", "trainable": true, "dtype": "float32"}, "name": "BLOCK_2-1_MULTIPLY", "inbound_nodes": [[["BLOCK_2-1_ACT_2", 0, 0, {}], ["BLOCK_2-1_SE_CONV_2", 0, 0, {}]]]}, {"class_name": "Conv2D", "config": {"name": "BLOCK_2-1_CONV_3", "trainable": true, "dtype": "float32", "filters": 72, "kernel_size": [1, 1], "strides": [1, 1], "padding": "same", "data_format": "channels_last", "dilation_rate": [1, 1], "groups": 1, "activation": "linear", "use_bias": false, "kernel_initializer": {"module": "keras.initializers", "class_name": "VarianceScaling", "config": {"scale": 2.0, "mode": "fan_out", "distribution": "truncated_normal", "seed": null}, "registered_name": null}, "bias_initializer": {"module": "keras.initializers", "class_name": "Zeros", "config": {}, "registered_name": null}, "kernel_regularizer": null, "bias_regularizer": null, "activity_regularizer": null, "kernel_constraint": null, "bias_constraint": null}, "name": "BLOCK_2-1_CONV_3", "inbound_nodes": [[["BLOCK_2-1_MULTIPLY", 0, 0, {}]]]}, {"class_name": "Conv2D", "config": {"name": "BLOCK_2-2_CONV_1", "trainable": true, "dtype": "float32", "filters": 288, "kernel_size": [1, 1], "strides": [1, 1], "padding": "same", "data_format": "channels_last", "dilation_rate": [1, 1], "groups": 1, "activation": "linear", "use_bias": false, "kernel_initializer": {"module": "keras.initializers", "class_name": "VarianceScaling", "config": {"scale": 2.0, "mode": "fan_out", "distribution": "truncated_normal", "seed": null}, "registered_name": null}, "bias_initializer": {"module": "keras.initializers", "class_name": "Zeros", "config": {}, "registered_name": null}, "kernel_regularizer": null, "bias_regularizer": null, "activity_regularizer": null, "kernel_constraint": null, "bias_constraint": null}, "name": "BLOCK_2-2_CONV_1", "inbound_nodes": [[["BLOCK_2-1_CONV_3", 0, 0, {}]]]}, {"class_name": "BatchNormalization", "config": {"name": "BLOCK_2-2_BN_1", "trainable": true, "dtype": "float32", "axis": [3], "momentum": 0.999, "epsilon": 0.001, "center": true, "scale": true, "beta_initializer": {"module": "keras.initializers", "class_name": "Zeros", "config": {}, "registered_name": null}, "gamma_initializer": {"module": "keras.initializers", "class_name": "Ones", "config": {}, "registered_name": null}, "moving_mean_initializer": {"module": "keras.initializers", "class_name": "Zeros", "config": {}, "registered_name": null}, "moving_variance_initializer": {"module": "keras.initializers", "class_name": "Ones", "config": {}, "registered_name": null}, "beta_regularizer": null, "gamma_regularizer": null, "beta_constraint": null, "gamma_constraint": null}, "name": "BLOCK_2-2_BN_1", "inbound_nodes": [[["BLOCK_2-2_CONV_1", 0, 0, {}]]]}, {"class_name": "Activation", "config": {"name": "BLOCK_2-2_ACT_1", "trainable": true, "dtype": "float32", "activation": "swish"}, "name": "BLOCK_2-2_ACT_1", "inbound_nodes": [[["BLOCK_2-2_BN_1", 0, 0, {}]]]}, {"class_name": "DepthwiseConv2D", "config": {"name": "BLOCK_2-2_CONV_2", "trainable": true, "dtype": "float32", "kernel_size": [3, 3], "strides": [1, 1], "padding": "same", "data_format": "channels_last", "dilation_rate": [1, 1], "groups": 1, "activation": "linear", "use_bias": false, "bias_initializer": {"module": "keras.initializers", "class_name": "Zeros", "config": {}, "registered_name": null}, "bias_regularizer": null, "activity_regularizer": null, "bias_constraint": null, "depth_multiplier": 1, "depthwise_initializer": {"module": "keras.initializers", "class_name": "GlorotUniform", "config": {"seed": null}, "registered_name": null}, "depthwise_regularizer": null, "depthwise_constraint": null}, "name": "BLOCK_2-2_CONV_2", "inbound_nodes": [[["BLOCK_2-2_ACT_1", 0, 0, {}]]]}, {"class_name": "BatchNormalization", "config": {"name": "BLOCK_2-2_BN_2", "trainable": true, "dtype": "float32", "axis": [3], "momentum": 0.999, "epsilon": 0.001, "center": true, "scale": true, "beta_initializer": {"module": "keras.initializers", "class_name": "Zeros", "config": {}, "registered_name": null}, "gamma_initializer": {"module": "keras.initializers", "class_name": "Ones", "config": {}, "registered_name": null}, "moving_mean_initializer": {"module": "keras.initializers", "class_name": "Zeros", "config": {}, "registered_name": null}, "moving_variance_initializer": {"module": "keras.initializers", "class_name": "Ones", "config": {}, "registered_name": null}, "beta_regularizer": null, "gamma_regularizer": null, "beta_constraint": null, "gamma_constraint": null}, "name": "BLOCK_2-2_BN_2", "inbound_nodes": [[["BLOCK_2-2_CONV_2", 0, 0, {}]]]}, {"class_name": "Activation", "config": {"name": "BLOCK_2-2_ACT_2", "trainable": true, "dtype": "float32", "activation": "swish"}, "name": "BLOCK_2-2_ACT_2", "inbound_nodes": [[["BLOCK_2-2_BN_2", 0, 0, {}]]]}, {"class_name": "GlobalAveragePooling2D", "config": {"name": "BLOCK_2-2_SE_AVG_POOL_1", "trainable": true, "dtype": "float32", "data_format": "channels_last", "keepdims": false}, "name": "BLOCK_2-2_SE_AVG_POOL_1", "inbound_nodes": [[["BLOCK_2-2_ACT_2", 0, 0, {}]]]}, {"class_name": "Reshape", "config": {"name": "BLOCK_2-2_SE_RESHAPE", "trainable": true, "dtype": "float32", "target_shape": [1, 1, 288]}, "name": "BLOCK_2-2_SE_RESHAPE", "inbound_nodes": [[["BLOCK_2-2_SE_AVG_POOL_1", 0, 0, {}]]]}, {"class_name": "Conv2D", "config": {"name": "BLOCK_2-2_SE_CONV_1", "trainable": true, "dtype": "float32", "filters": 18, "kernel_size": [1, 1], "strides": [1, 1], "padding": "same", "data_format": "channels_last", "dilation_rate": [1, 1], "groups": 1, "activation": "swish", "use_bias": false, "kernel_initializer": {"module": "keras.initializers", "class_name": "VarianceScaling", "config": {"scale": 2.0, "mode": "fan_out", "distribution": "truncated_normal", "seed": null}, "registered_name": null}, "bias_initializer": {"module": "keras.initializers", "class_name": "Zeros", "config": {}, "registered_name": null}, "kernel_regularizer": null, "bias_regularizer": null, "activity_regularizer": null, "kernel_constraint": null, "bias_constraint": null}, "name": "BLOCK_2-2_SE_CONV_1", "inbound_nodes": [[["BLOCK_2-2_SE_RESHAPE", 0, 0, {}]]]}, {"class_name": "Conv2D", "config": {"name": "BLOCK_2-2_SE_CONV_2", "trainable": true, "dtype": "float32", "filters": 288, "kernel_size": [1, 1], "strides": [1, 1], "padding": "same", "data_format": "channels_last", "dilation_rate": [1, 1], "groups": 1, "activation": "sigmoid", "use_bias": false, "kernel_initializer": {"module": "keras.initializers", "class_name": "VarianceScaling", "config": {"scale": 2.0, "mode": "fan_out", "distribution": "truncated_normal", "seed": null}, "registered_name": null}, "bias_initializer": {"module": "keras.initializers", "class_name": "Zeros", "config": {}, "registered_name": null}, "kernel_regularizer": null, "bias_regularizer": null, "activity_regularizer": null, "kernel_constraint": null, "bias_constraint": null}, "name": "BLOCK_2-2_SE_CONV_2", "inbound_nodes": [[["BLOCK_2-2_SE_CONV_1", 0, 0, {}]]]}, {"class_name": "Multiply", "config": {"name": "BLOCK_2-2_MULTIPLY", "trainable": true, "dtype": "float32"}, "name": "BLOCK_2-2_MULTIPLY", "inbound_nodes": [[["BLOCK_2-2_ACT_2", 0, 0, {}], ["BLOCK_2-2_SE_CONV_2", 0, 0, {}]]]}, {"class_name": "Conv2D", "config": {"name": "BLOCK_2-2_CONV_3", "trainable": true, "dtype": "float32", "filters": 72, "kernel_size": [1, 1], "strides": [1, 1], "padding": "same", "data_format": "channels_last", "dilation_rate": [1, 1], "groups": 1, "activation": "linear", "use_bias": false, "kernel_initializer": {"module": "keras.initializers", "class_name": "VarianceScaling", "config": {"scale": 2.0, "mode": "fan_out", "distribution": "truncated_normal", "seed": null}, "registered_name": null}, "bias_initializer": {"module": "keras.initializers", "class_name": "Zeros", "config": {}, "registered_name": null}, "kernel_regularizer": null, "bias_regularizer": null, "activity_regularizer": null, "kernel_constraint": null, "bias_constraint": null}, "name": "BLOCK_2-2_CONV_3", "inbound_nodes": [[["BLOCK_2-2_MULTIPLY", 0, 0, {}]]]}, {"class_name": "Dropout", "config": {"name": "BLOCK_2-2_DO", "trainable": true, "dtype": "float32", "rate": 0.1, "noise_shape": [null, 1, 1, 1], "seed": null}, "name": "BLOCK_2-2_DO", "inbound_nodes": [[["BLOCK_2-2_CONV_3", 0, 0, {}]]]}, {"class_name": "Add", "config": {"name": "BLOCK_2-2_ADD", "trainable": true, "dtype": "float32"}, "name": "BLOCK_2-2_ADD", "inbound_nodes": [[["BLOCK_2-2_DO", 0, 0, {}], ["BLOCK_2-1_CONV_3", 0, 0, {}]]]}, {"class_name": "Conv2D", "config": {"name": "BLOCK_2-3_CONV_1", "trainable": true, "dtype": "float32", "filters": 288, "kernel_size": [1, 1], "strides": [1, 1], "padding": "same", "data_format": "channels_last", "dilation_rate": [1, 1], "groups": 1, "activation": "linear", "use_bias": false, "kernel_initializer": {"module": "keras.initializers", "class_name": "VarianceScaling", "config": {"scale": 2.0, "mode": "fan_out", "distribution": "truncated_normal", "seed": null}, "registered_name": null}, "bias_initializer": {"module": "keras.initializers", "class_name": "Zeros", "config": {}, "registered_name": null}, "kernel_regularizer": null, "bias_regularizer": null, "activity_regularizer": null, "kernel_constraint": null, "bias_constraint": null}, "name": "BLOCK_2-3_CONV_1", "inbound_nodes": [[["BLOCK_2-2_ADD", 0, 0, {}]]]}, {"class_name": "BatchNormalization", "config": {"name": "BLOCK_2-3_BN_1", "trainable": true, "dtype": "float32", "axis": [3], "momentum": 0.999, "epsilon": 0.001, "center": true, "scale": true, "beta_initializer": {"module": "keras.initializers", "class_name": "Zeros", "config": {}, "registered_name": null}, "gamma_initializer": {"module": "keras.initializers", "class_name": "Ones", "config": {}, "registered_name": null}, "moving_mean_initializer": {"module": "keras.initializers", "class_name": "Zeros", "config": {}, "registered_name": null}, "moving_variance_initializer": {"module": "keras.initializers", "class_name": "Ones", "config": {}, "registered_name": null}, "beta_regularizer": null, "gamma_regularizer": null, "beta_constraint": null, "gamma_constraint": null}, "name": "BLOCK_2-3_BN_1", "inbound_nodes": [[["BLOCK_2-3_CONV_1", 0, 0, {}]]]}, {"class_name": "Activation", "config": {"name": "BLOCK_2-3_ACT_1", "trainable": true, "dtype": "float32", "activation": "swish"}, "name": "BLOCK_2-3_ACT_1", "inbound_nodes": [[["BLOCK_2-3_BN_1", 0, 0, {}]]]}, {"class_name": "DepthwiseConv2D", "config": {"name": "BLOCK_2-3_CONV_2", "trainable": true, "dtype": "float32", "kernel_size": [3, 3], "strides": [1, 1], "padding": "same", "data_format": "channels_last", "dilation_rate": [1, 1], "groups": 1, "activation": "linear", "use_bias": false, "bias_initializer": {"module": "keras.initializers", "class_name": "Zeros", "config": {}, "registered_name": null}, "bias_regularizer": null, "activity_regularizer": null, "bias_constraint": null, "depth_multiplier": 1, "depthwise_initializer": {"module": "keras.initializers", "class_name": "GlorotUniform", "config": {"seed": null}, "registered_name": null}, "depthwise_regularizer": null, "depthwise_constraint": null}, "name": "BLOCK_2-3_CONV_2", "inbound_nodes": [[["BLOCK_2-3_ACT_1", 0, 0, {}]]]}, {"class_name": "BatchNormalization", "config": {"name": "BLOCK_2-3_BN_2", "trainable": true, "dtype": "float32", "axis": [3], "momentum": 0.999, "epsilon": 0.001, "center": true, "scale": true, "beta_initializer": {"module": "keras.initializers", "class_name": "Zeros", "config": {}, "registered_name": null}, "gamma_initializer": {"module": "keras.initializers", "class_name": "Ones", "config": {}, "registered_name": null}, "moving_mean_initializer": {"module": "keras.initializers", "class_name": "Zeros", "config": {}, "registered_name": null}, "moving_variance_initializer": {"module": "keras.initializers", "class_name": "Ones", "config": {}, "registered_name": null}, "beta_regularizer": null, "gamma_regularizer": null, "beta_constraint": null, "gamma_constraint": null}, "name": "BLOCK_2-3_BN_2", "inbound_nodes": [[["BLOCK_2-3_CONV_2", 0, 0, {}]]]}, {"class_name": "Activation", "config": {"name": "BLOCK_2-3_ACT_2", "trainable": true, "dtype": "float32", "activation": "swish"}, "name": "BLOCK_2-3_ACT_2", "inbound_nodes": [[["BLOCK_2-3_BN_2", 0, 0, {}]]]}, {"class_name": "GlobalAveragePooling2D", "config": {"name": "BLOCK_2-3_SE_AVG_POOL_1", "trainable": true, "dtype": "float32", "data_format": "channels_last", "keepdims": false}, "name": "BLOCK_2-3_SE_AVG_POOL_1", "inbound_nodes": [[["BLOCK_2-3_ACT_2", 0, 0, {}]]]}, {"class_name": "Reshape", "config": {"name": "BLOCK_2-3_SE_RESHAPE", "trainable": true, "dtype": "float32", "target_shape": [1, 1, 288]}, "name": "BLOCK_2-3_SE_RESHAPE", "inbound_nodes": [[["BLOCK_2-3_SE_AVG_POOL_1", 0, 0, {}]]]}, {"class_name": "Conv2D", "config": {"name": "BLOCK_2-3_SE_CONV_1", "trainable": true, "dtype": "float32", "filters": 18, "kernel_size": [1, 1], "strides": [1, 1], "padding": "same", "data_format": "channels_last", "dilation_rate": [1, 1], "groups": 1, "activation": "swish", "use_bias": false, "kernel_initializer": {"module": "keras.initializers", "class_name": "VarianceScaling", "config": {"scale": 2.0, "mode": "fan_out", "distribution": "truncated_normal", "seed": null}, "registered_name": null}, "bias_initializer": {"module": "keras.initializers", "class_name": "Zeros", "config": {}, "registered_name": null}, "kernel_regularizer": null, "bias_regularizer": null, "activity_regularizer": null, "kernel_constraint": null, "bias_constraint": null}, "name": "BLOCK_2-3_SE_CONV_1", "inbound_nodes": [[["BLOCK_2-3_SE_RESHAPE", 0, 0, {}]]]}, {"class_name": "Conv2D", "config": {"name": "BLOCK_2-3_SE_CONV_2", "trainable": true, "dtype": "float32", "filters": 288, "kernel_size": [1, 1], "strides": [1, 1], "padding": "same", "data_format": "channels_last", "dilation_rate": [1, 1], "groups": 1, "activation": "sigmoid", "use_bias": false, "kernel_initializer": {"module": "keras.initializers", "class_name": "VarianceScaling", "config": {"scale": 2.0, "mode": "fan_out", "distribution": "truncated_normal", "seed": null}, "registered_name": null}, "bias_initializer": {"module": "keras.initializers", "class_name": "Zeros", "config": {}, "registered_name": null}, "kernel_regularizer": null, "bias_regularizer": null, "activity_regularizer": null, "kernel_constraint": null, "bias_constraint": null}, "name": "BLOCK_2-3_SE_CONV_2", "inbound_nodes": [[["BLOCK_2-3_SE_CONV_1", 0, 0, {}]]]}, {"class_name": "Multiply", "config": {"name": "BLOCK_2-3_MULTIPLY", "trainable": true, "dtype": "float32"}, "name": "BLOCK_2-3_MULTIPLY", "inbound_nodes": [[["BLOCK_2-3_ACT_2", 0, 0, {}], ["BLOCK_2-3_SE_CONV_2", 0, 0, {}]]]}, {"class_name": "Conv2D", "config": {"name": "BLOCK_2-3_CONV_3", "trainable": true, "dtype": "float32", "filters": 72, "kernel_size": [1, 1], "strides": [1, 1], "padding": "same", "data_format": "channels_last", "dilation_rate": [1, 1], "groups": 1, "activation": "linear", "use_bias": false, "kernel_initializer": {"module": "keras.initializers", "class_name": "VarianceScaling", "config": {"scale": 2.0, "mode": "fan_out", "distribution": "truncated_normal", "seed": null}, "registered_name": null}, "bias_initializer": {"module": "keras.initializers", "class_name": "Zeros", "config": {}, "registered_name": null}, "kernel_regularizer": null, "bias_regularizer": null, "activity_regularizer": null, "kernel_constraint": null, "bias_constraint": null}, "name": "BLOCK_2-3_CONV_3", "inbound_nodes": [[["BLOCK_2-3_MULTIPLY", 0, 0, {}]]]}, {"class_name": "Dropout", "config": {"name": "BLOCK_2-3_DO", "trainable": true, "dtype": "float32", "rate": 0.1, "noise_shape": [null, 1, 1, 1], "seed": null}, "name": "BLOCK_2-3_DO", "inbound_nodes": [[["BLOCK_2-3_CONV_3", 0, 0, {}]]]}, {"class_name": "Add", "config": {"name": "BLOCK_2-3_ADD", "trainable": true, "dtype": "float32"}, "name": "BLOCK_2-3_ADD", "inbound_nodes": [[["BLOCK_2-3_DO", 0, 0, {}], ["BLOCK_2-2_ADD", 0, 0, {}]]]}, {"class_name": "Conv2D", "config": {"name": "BLOCK_2-4_CONV_1", "trainable": true, "dtype": "float32", "filters": 288, "kernel_size": [1, 1], "strides": [1, 1], "padding": "same", "data_format": "channels_last", "dilation_rate": [1, 1], "groups": 1, "activation": "linear", "use_bias": false, "kernel_initializer": {"module": "keras.initializers", "class_name": "VarianceScaling", "config": {"scale": 2.0, "mode": "fan_out", "distribution": "truncated_normal", "seed": null}, "registered_name": null}, "bias_initializer": {"module": "keras.initializers", "class_name": "Zeros", "config": {}, "registered_name": null}, "kernel_regularizer": null, "bias_regularizer": null, "activity_regularizer": null, "kernel_constraint": null, "bias_constraint": null}, "name": "BLOCK_2-4_CONV_1", "inbound_nodes": [[["BLOCK_2-3_ADD", 0, 0, {}]]]}, {"class_name": "BatchNormalization", "config": {"name": "BLOCK_2-4_BN_1", "trainable": true, "dtype": "float32", "axis": [3], "momentum": 0.999, "epsilon": 0.001, "center": true, "scale": true, "beta_initializer": {"module": "keras.initializers", "class_name": "Zeros", "config": {}, "registered_name": null}, "gamma_initializer": {"module": "keras.initializers", "class_name": "Ones", "config": {}, "registered_name": null}, "moving_mean_initializer": {"module": "keras.initializers", "class_name": "Zeros", "config": {}, "registered_name": null}, "moving_variance_initializer": {"module": "keras.initializers", "class_name": "Ones", "config": {}, "registered_name": null}, "beta_regularizer": null, "gamma_regularizer": null, "beta_constraint": null, "gamma_constraint": null}, "name": "BLOCK_2-4_BN_1", "inbound_nodes": [[["BLOCK_2-4_CONV_1", 0, 0, {}]]]}, {"class_name": "Activation", "config": {"name": "BLOCK_2-4_ACT_1", "trainable": true, "dtype": "float32", "activation": "swish"}, "name": "BLOCK_2-4_ACT_1", "inbound_nodes": [[["BLOCK_2-4_BN_1", 0, 0, {}]]]}, {"class_name": "DepthwiseConv2D", "config": {"name": "BLOCK_2-4_CONV_2", "trainable": true, "dtype": "float32", "kernel_size": [3, 3], "strides": [1, 1], "padding": "same", "data_format": "channels_last", "dilation_rate": [1, 1], "groups": 1, "activation": "linear", "use_bias": false, "bias_initializer": {"module": "keras.initializers", "class_name": "Zeros", "config": {}, "registered_name": null}, "bias_regularizer": null, "activity_regularizer": null, "bias_constraint": null, "depth_multiplier": 1, "depthwise_initializer": {"module": "keras.initializers", "class_name": "GlorotUniform", "config": {"seed": null}, "registered_name": null}, "depthwise_regularizer": null, "depthwise_constraint": null}, "name": "BLOCK_2-4_CONV_2", "inbound_nodes": [[["BLOCK_2-4_ACT_1", 0, 0, {}]]]}, {"class_name": "BatchNormalization", "config": {"name": "BLOCK_2-4_BN_2", "trainable": true, "dtype": "float32", "axis": [3], "momentum": 0.999, "epsilon": 0.001, "center": true, "scale": true, "beta_initializer": {"module": "keras.initializers", "class_name": "Zeros", "config": {}, "registered_name": null}, "gamma_initializer": {"module": "keras.initializers", "class_name": "Ones", "config": {}, "registered_name": null}, "moving_mean_initializer": {"module": "keras.initializers", "class_name": "Zeros", "config": {}, "registered_name": null}, "moving_variance_initializer": {"module": "keras.initializers", "class_name": "Ones", "config": {}, "registered_name": null}, "beta_regularizer": null, "gamma_regularizer": null, "beta_constraint": null, "gamma_constraint": null}, "name": "BLOCK_2-4_BN_2", "inbound_nodes": [[["BLOCK_2-4_CONV_2", 0, 0, {}]]]}, {"class_name": "Activation", "config": {"name": "BLOCK_2-4_ACT_2", "trainable": true, "dtype": "float32", "activation": "swish"}, "name": "BLOCK_2-4_ACT_2", "inbound_nodes": [[["BLOCK_2-4_BN_2", 0, 0, {}]]]}, {"class_name": "GlobalAveragePooling2D", "config": {"name": "BLOCK_2-4_SE_AVG_POOL_1", "trainable": true, "dtype": "float32", "data_format": "channels_last", "keepdims": false}, "name": "BLOCK_2-4_SE_AVG_POOL_1", "inbound_nodes": [[["BLOCK_2-4_ACT_2", 0, 0, {}]]]}, {"class_name": "Reshape", "config": {"name": "BLOCK_2-4_SE_RESHAPE", "trainable": true, "dtype": "float32", "target_shape": [1, 1, 288]}, "name": "BLOCK_2-4_SE_RESHAPE", "inbound_nodes": [[["BLOCK_2-4_SE_AVG_POOL_1", 0, 0, {}]]]}, {"class_name": "Conv2D", "config": {"name": "BLOCK_2-4_SE_CONV_1", "trainable": true, "dtype": "float32", "filters": 18, "kernel_size": [1, 1], "strides": [1, 1], "padding": "same", "data_format": "channels_last", "dilation_rate": [1, 1], "groups": 1, "activation": "swish", "use_bias": false, "kernel_initializer": {"module": "keras.initializers", "class_name": "VarianceScaling", "config": {"scale": 2.0, "mode": "fan_out", "distribution": "truncated_normal", "seed": null}, "registered_name": null}, "bias_initializer": {"module": "keras.initializers", "class_name": "Zeros", "config": {}, "registered_name": null}, "kernel_regularizer": null, "bias_regularizer": null, "activity_regularizer": null, "kernel_constraint": null, "bias_constraint": null}, "name": "BLOCK_2-4_SE_CONV_1", "inbound_nodes": [[["BLOCK_2-4_SE_RESHAPE", 0, 0, {}]]]}, {"class_name": "Conv2D", "config": {"name": "BLOCK_2-4_SE_CONV_2", "trainable": true, "dtype": "float32", "filters": 288, "kernel_size": [1, 1], "strides": [1, 1], "padding": "same", "data_format": "channels_last", "dilation_rate": [1, 1], "groups": 1, "activation": "sigmoid", "use_bias": false, "kernel_initializer": {"module": "keras.initializers", "class_name": "VarianceScaling", "config": {"scale": 2.0, "mode": "fan_out", "distribution": "truncated_normal", "seed": null}, "registered_name": null}, "bias_initializer": {"module": "keras.initializers", "class_name": "Zeros", "config": {}, "registered_name": null}, "kernel_regularizer": null, "bias_regularizer": null, "activity_regularizer": null, "kernel_constraint": null, "bias_constraint": null}, "name": "BLOCK_2-4_SE_CONV_2", "inbound_nodes": [[["BLOCK_2-4_SE_CONV_1", 0, 0, {}]]]}, {"class_name": "Multiply", "config": {"name": "BLOCK_2-4_MULTIPLY", "trainable": true, "dtype": "float32"}, "name": "BLOCK_2-4_MULTIPLY", "inbound_nodes": [[["BLOCK_2-4_ACT_2", 0, 0, {}], ["BLOCK_2-4_SE_CONV_2", 0, 0, {}]]]}, {"class_name": "Conv2D", "config": {"name": "BLOCK_2-4_CONV_3", "trainable": true, "dtype": "float32", "filters": 72, "kernel_size": [1, 1], "strides": [1, 1], "padding": "same", "data_format": "channels_last", "dilation_rate": [1, 1], "groups": 1, "activation": "linear", "use_bias": false, "kernel_initializer": {"module": "keras.initializers", "class_name": "VarianceScaling", "config": {"scale": 2.0, "mode": "fan_out", "distribution": "truncated_normal", "seed": null}, "registered_name": null}, "bias_initializer": {"module": "keras.initializers", "class_name": "Zeros", "config": {}, "registered_name": null}, "kernel_regularizer": null, "bias_regularizer": null, "activity_regularizer": null, "kernel_constraint": null, "bias_constraint": null}, "name": "BLOCK_2-4_CONV_3", "inbound_nodes": [[["BLOCK_2-4_MULTIPLY", 0, 0, {}]]]}, {"class_name": "Dropout", "config": {"name": "BLOCK_2-4_DO", "trainable": true, "dtype": "float32", "rate": 0.1, "noise_shape": [null, 1, 1, 1], "seed": null}, "name": "BLOCK_2-4_DO", "inbound_nodes": [[["BLOCK_2-4_CONV_3", 0, 0, {}]]]}, {"class_name": "Add", "config": {"name": "BLOCK_2-4_ADD", "trainable": true, "dtype": "float32"}, "name": "BLOCK_2-4_ADD", "inbound_nodes": [[["BLOCK_2-4_DO", 0, 0, {}], ["BLOCK_2-3_ADD", 0, 0, {}]]]}, {"class_name": "Conv2D", "config": {"name": "BLOCK_3-1_CONV_1", "trainable": true, "dtype": "float32", "filters": 864, "kernel_size": [1, 1], "strides": [1, 1], "padding": "same", "data_format": "channels_last", "dilation_rate": [1, 1], "groups": 1, "activation": "linear", "use_bias": false, "kernel_initializer": {"module": "keras.initializers", "class_name": "VarianceScaling", "config": {"scale": 2.0, "mode": "fan_out", "distribution": "truncated_normal", "seed": null}, "registered_name": null}, "bias_initializer": {"module": "keras.initializers", "class_name": "Zeros", "config": {}, "registered_name": null}, "kernel_regularizer": null, "bias_regularizer": null, "activity_regularizer": null, "kernel_constraint": null, "bias_constraint": null}, "name": "BLOCK_3-1_CONV_1", "inbound_nodes": [[["BLOCK_2-4_ADD", 0, 0, {}]]]}, {"class_name": "BatchNormalization", "config": {"name": "BLOCK_3-1_BN_1", "trainable": true, "dtype": "float32", "axis": [3], "momentum": 0.999, "epsilon": 0.001, "center": true, "scale": true, "beta_initializer": {"module": "keras.initializers", "class_name": "Zeros", "config": {}, "registered_name": null}, "gamma_initializer": {"module": "keras.initializers", "class_name": "Ones", "config": {}, "registered_name": null}, "moving_mean_initializer": {"module": "keras.initializers", "class_name": "Zeros", "config": {}, "registered_name": null}, "moving_variance_initializer": {"module": "keras.initializers", "class_name": "Ones", "config": {}, "registered_name": null}, "beta_regularizer": null, "gamma_regularizer": null, "beta_constraint": null, "gamma_constraint": null}, "name": "BLOCK_3-1_BN_1", "inbound_nodes": [[["BLOCK_3-1_CONV_1", 0, 0, {}]]]}, {"class_name": "Activation", "config": {"name": "BLOCK_3-1_ACT_1", "trainable": true, "dtype": "float32", "activation": "swish"}, "name": "BLOCK_3-1_ACT_1", "inbound_nodes": [[["BLOCK_3-1_BN_1", 0, 0, {}]]]}, {"class_name": "ZeroPadding2D", "config": {"name": "BLOCK_3-1_PAD", "trainable": true, "dtype": "float32", "padding": [[1, 1], [1, 1]], "data_format": "channels_last"}, "name": "BLOCK_3-1_PAD", "inbound_nodes": [[["BLOCK_3-1_ACT_1", 0, 0, {}]]]}, {"class_name": "DepthwiseConv2D", "config": {"name": "BLOCK_3-1_CONV_2", "trainable": true, "dtype": "float32", "kernel_size": [3, 3], "strides": [2, 2], "padding": "valid", "data_format": "channels_last", "dilation_rate": [1, 1], "groups": 1, "activation": "linear", "use_bias": false, "bias_initializer": {"module": "keras.initializers", "class_name": "Zeros", "config": {}, "registered_name": null}, "bias_regularizer": null, "activity_regularizer": null, "bias_constraint": null, "depth_multiplier": 1, "depthwise_initializer": {"module": "keras.initializers", "class_name": "GlorotUniform", "config": {"seed": null}, "registered_name": null}, "depthwise_regularizer": null, "depthwise_constraint": null}, "name": "BLOCK_3-1_CONV_2", "inbound_nodes": [[["BLOCK_3-1_PAD", 0, 0, {}]]]}, {"class_name": "BatchNormalization", "config": {"name": "BLOCK_3-1_BN_2", "trainable": true, "dtype": "float32", "axis": [3], "momentum": 0.999, "epsilon": 0.001, "center": true, "scale": true, "beta_initializer": {"module": "keras.initializers", "class_name": "Zeros", "config": {}, "registered_name": null}, "gamma_initializer": {"module": "keras.initializers", "class_name": "Ones", "config": {}, "registered_name": null}, "moving_mean_initializer": {"module": "keras.initializers", "class_name": "Zeros", "config": {}, "registered_name": null}, "moving_variance_initializer": {"module": "keras.initializers", "class_name": "Ones", "config": {}, "registered_name": null}, "beta_regularizer": null, "gamma_regularizer": null, "beta_constraint": null, "gamma_constraint": null}, "name": "BLOCK_3-1_BN_2", "inbound_nodes": [[["BLOCK_3-1_CONV_2", 0, 0, {}]]]}, {"class_name": "Activation", "config": {"name": "BLOCK_3-1_ACT_2", "trainable": true, "dtype": "float32", "activation": "swish"}, "name": "BLOCK_3-1_ACT_2", "inbound_nodes": [[["BLOCK_3-1_BN_2", 0, 0, {}]]]}, {"class_name": "GlobalAveragePooling2D", "config": {"name": "BLOCK_3-1_SE_AVG_POOL_1", "trainable": true, "dtype": "float32", "data_format": "channels_last", "keepdims": false}, "name": "BLOCK_3-1_SE_AVG_POOL_1", "inbound_nodes": [[["BLOCK_3-1_ACT_2", 0, 0, {}]]]}, {"class_name": "Reshape", "config": {"name": "BLOCK_3-1_SE_RESHAPE", "trainable": true, "dtype": "float32", "target_shape": [1, 1, 864]}, "name": "BLOCK_3-1_SE_RESHAPE", "inbound_nodes": [[["BLOCK_3-1_SE_AVG_POOL_1", 0, 0, {}]]]}, {"class_name": "Conv2D", "config": {"name": "BLOCK_3-1_SE_CONV_1", "trainable": true, "dtype": "float32", "filters": 27, "kernel_size": [1, 1], "strides": [1, 1], "padding": "same", "data_format": "channels_last", "dilation_rate": [1, 1], "groups": 1, "activation": "swish", "use_bias": false, "kernel_initializer": {"module": "keras.initializers", "class_name": "VarianceScaling", "config": {"scale": 2.0, "mode": "fan_out", "distribution": "truncated_normal", "seed": null}, "registered_name": null}, "bias_initializer": {"module": "keras.initializers", "class_name": "Zeros", "config": {}, "registered_name": null}, "kernel_regularizer": null, "bias_regularizer": null, "activity_regularizer": null, "kernel_constraint": null, "bias_constraint": null}, "name": "BLOCK_3-1_SE_CONV_1", "inbound_nodes": [[["BLOCK_3-1_SE_RESHAPE", 0, 0, {}]]]}, {"class_name": "Conv2D", "config": {"name": "BLOCK_3-1_SE_CONV_2", "trainable": true, "dtype": "float32", "filters": 864, "kernel_size": [1, 1], "strides": [1, 1], "padding": "same", "data_format": "channels_last", "dilation_rate": [1, 1], "groups": 1, "activation": "sigmoid", "use_bias": false, "kernel_initializer": {"module": "keras.initializers", "class_name": "VarianceScaling", "config": {"scale": 2.0, "mode": "fan_out", "distribution": "truncated_normal", "seed": null}, "registered_name": null}, "bias_initializer": {"module": "keras.initializers", "class_name": "Zeros", "config": {}, "registered_name": null}, "kernel_regularizer": null, "bias_regularizer": null, "activity_regularizer": null, "kernel_constraint": null, "bias_constraint": null}, "name": "BLOCK_3-1_SE_CONV_2", "inbound_nodes": [[["BLOCK_3-1_SE_CONV_1", 0, 0, {}]]]}, {"class_name": "Multiply", "config": {"name": "BLOCK_3-1_MULTIPLY", "trainable": true, "dtype": "float32"}, "name": "BLOCK_3-1_MULTIPLY", "inbound_nodes": [[["BLOCK_3-1_ACT_2", 0, 0, {}], ["BLOCK_3-1_SE_CONV_2", 0, 0, {}]]]}, {"class_name": "Conv2D", "config": {"name": "BLOCK_3-1_CONV_3", "trainable": true, "dtype": "float32", "filters": 108, "kernel_size": [1, 1], "strides": [1, 1], "padding": "same", "data_format": "channels_last", "dilation_rate": [1, 1], "groups": 1, "activation": "linear", "use_bias": false, "kernel_initializer": {"module": "keras.initializers", "class_name": "VarianceScaling", "config": {"scale": 2.0, "mode": "fan_out", "distribution": "truncated_normal", "seed": null}, "registered_name": null}, "bias_initializer": {"module": "keras.initializers", "class_name": "Zeros", "config": {}, "registered_name": null}, "kernel_regularizer": null, "bias_regularizer": null, "activity_regularizer": null, "kernel_constraint": null, "bias_constraint": null}, "name": "BLOCK_3-1_CONV_3", "inbound_nodes": [[["BLOCK_3-1_MULTIPLY", 0, 0, {}]]]}, {"class_name": "Conv2D", "config": {"name": "BLOCK_3-2_CONV_1", "trainable": true, "dtype": "float32", "filters": 864, "kernel_size": [1, 1], "strides": [1, 1], "padding": "same", "data_format": "channels_last", "dilation_rate": [1, 1], "groups": 1, "activation": "linear", "use_bias": false, "kernel_initializer": {"module": "keras.initializers", "class_name": "VarianceScaling", "config": {"scale": 2.0, "mode": "fan_out", "distribution": "truncated_normal", "seed": null}, "registered_name": null}, "bias_initializer": {"module": "keras.initializers", "class_name": "Zeros", "config": {}, "registered_name": null}, "kernel_regularizer": null, "bias_regularizer": null, "activity_regularizer": null, "kernel_constraint": null, "bias_constraint": null}, "name": "BLOCK_3-2_CONV_1", "inbound_nodes": [[["BLOCK_3-1_CONV_3", 0, 0, {}]]]}, {"class_name": "BatchNormalization", "config": {"name": "BLOCK_3-2_BN_1", "trainable": true, "dtype": "float32", "axis": [3], "momentum": 0.999, "epsilon": 0.001, "center": true, "scale": true, "beta_initializer": {"module": "keras.initializers", "class_name": "Zeros", "config": {}, "registered_name": null}, "gamma_initializer": {"module": "keras.initializers", "class_name": "Ones", "config": {}, "registered_name": null}, "moving_mean_initializer": {"module": "keras.initializers", "class_name": "Zeros", "config": {}, "registered_name": null}, "moving_variance_initializer": {"module": "keras.initializers", "class_name": "Ones", "config": {}, "registered_name": null}, "beta_regularizer": null, "gamma_regularizer": null, "beta_constraint": null, "gamma_constraint": null}, "name": "BLOCK_3-2_BN_1", "inbound_nodes": [[["BLOCK_3-2_CONV_1", 0, 0, {}]]]}, {"class_name": "Activation", "config": {"name": "BLOCK_3-2_ACT_1", "trainable": true, "dtype": "float32", "activation": "swish"}, "name": "BLOCK_3-2_ACT_1", "inbound_nodes": [[["BLOCK_3-2_BN_1", 0, 0, {}]]]}, {"class_name": "DepthwiseConv2D", "config": {"name": "BLOCK_3-2_CONV_2", "trainable": true, "dtype": "float32", "kernel_size": [3, 3], "strides": [1, 1], "padding": "same", "data_format": "channels_last", "dilation_rate": [1, 1], "groups": 1, "activation": "linear", "use_bias": false, "bias_initializer": {"module": "keras.initializers", "class_name": "Zeros", "config": {}, "registered_name": null}, "bias_regularizer": null, "activity_regularizer": null, "bias_constraint": null, "depth_multiplier": 1, "depthwise_initializer": {"module": "keras.initializers", "class_name": "GlorotUniform", "config": {"seed": null}, "registered_name": null}, "depthwise_regularizer": null, "depthwise_constraint": null}, "name": "BLOCK_3-2_CONV_2", "inbound_nodes": [[["BLOCK_3-2_ACT_1", 0, 0, {}]]]}, {"class_name": "BatchNormalization", "config": {"name": "BLOCK_3-2_BN_2", "trainable": true, "dtype": "float32", "axis": [3], "momentum": 0.999, "epsilon": 0.001, "center": true, "scale": true, "beta_initializer": {"module": "keras.initializers", "class_name": "Zeros", "config": {}, "registered_name": null}, "gamma_initializer": {"module": "keras.initializers", "class_name": "Ones", "config": {}, "registered_name": null}, "moving_mean_initializer": {"module": "keras.initializers", "class_name": "Zeros", "config": {}, "registered_name": null}, "moving_variance_initializer": {"module": "keras.initializers", "class_name": "Ones", "config": {}, "registered_name": null}, "beta_regularizer": null, "gamma_regularizer": null, "beta_constraint": null, "gamma_constraint": null}, "name": "BLOCK_3-2_BN_2", "inbound_nodes": [[["BLOCK_3-2_CONV_2", 0, 0, {}]]]}, {"class_name": "Activation", "config": {"name": "BLOCK_3-2_ACT_2", "trainable": true, "dtype": "float32", "activation": "swish"}, "name": "BLOCK_3-2_ACT_2", "inbound_nodes": [[["BLOCK_3-2_BN_2", 0, 0, {}]]]}, {"class_name": "GlobalAveragePooling2D", "config": {"name": "BLOCK_3-2_SE_AVG_POOL_1", "trainable": true, "dtype": "float32", "data_format": "channels_last", "keepdims": false}, "name": "BLOCK_3-2_SE_AVG_POOL_1", "inbound_nodes": [[["BLOCK_3-2_ACT_2", 0, 0, {}]]]}, {"class_name": "Reshape", "config": {"name": "BLOCK_3-2_SE_RESHAPE", "trainable": true, "dtype": "float32", "target_shape": [1, 1, 864]}, "name": "BLOCK_3-2_SE_RESHAPE", "inbound_nodes": [[["BLOCK_3-2_SE_AVG_POOL_1", 0, 0, {}]]]}, {"class_name": "Conv2D", "config": {"name": "BLOCK_3-2_SE_CONV_1", "trainable": true, "dtype": "float32", "filters": 27, "kernel_size": [1, 1], "strides": [1, 1], "padding": "same", "data_format": "channels_last", "dilation_rate": [1, 1], "groups": 1, "activation": "swish", "use_bias": false, "kernel_initializer": {"module": "keras.initializers", "class_name": "VarianceScaling", "config": {"scale": 2.0, "mode": "fan_out", "distribution": "truncated_normal", "seed": null}, "registered_name": null}, "bias_initializer": {"module": "keras.initializers", "class_name": "Zeros", "config": {}, "registered_name": null}, "kernel_regularizer": null, "bias_regularizer": null, "activity_regularizer": null, "kernel_constraint": null, "bias_constraint": null}, "name": "BLOCK_3-2_SE_CONV_1", "inbound_nodes": [[["BLOCK_3-2_SE_RESHAPE", 0, 0, {}]]]}, {"class_name": "Conv2D", "config": {"name": "BLOCK_3-2_SE_CONV_2", "trainable": true, "dtype": "float32", "filters": 864, "kernel_size": [1, 1], "strides": [1, 1], "padding": "same", "data_format": "channels_last", "dilation_rate": [1, 1], "groups": 1, "activation": "sigmoid", "use_bias": false, "kernel_initializer": {"module": "keras.initializers", "class_name": "VarianceScaling", "config": {"scale": 2.0, "mode": "fan_out", "distribution": "truncated_normal", "seed": null}, "registered_name": null}, "bias_initializer": {"module": "keras.initializers", "class_name": "Zeros", "config": {}, "registered_name": null}, "kernel_regularizer": null, "bias_regularizer": null, "activity_regularizer": null, "kernel_constraint": null, "bias_constraint": null}, "name": "BLOCK_3-2_SE_CONV_2", "inbound_nodes": [[["BLOCK_3-2_SE_CONV_1", 0, 0, {}]]]}, {"class_name": "Multiply", "config": {"name": "BLOCK_3-2_MULTIPLY", "trainable": true, "dtype": "float32"}, "name": "BLOCK_3-2_MULTIPLY", "inbound_nodes": [[["BLOCK_3-2_ACT_2", 0, 0, {}], ["BLOCK_3-2_SE_CONV_2", 0, 0, {}]]]}, {"class_name": "Conv2D", "config": {"name": "BLOCK_3-2_CONV_3", "trainable": true, "dtype": "float32", "filters": 108, "kernel_size": [1, 1], "strides": [1, 1], "padding": "same", "data_format": "channels_last", "dilation_rate": [1, 1], "groups": 1, "activation": "linear", "use_bias": false, "kernel_initializer": {"module": "keras.initializers", "class_name": "VarianceScaling", "config": {"scale": 2.0, "mode": "fan_out", "distribution": "truncated_normal", "seed": null}, "registered_name": null}, "bias_initializer": {"module": "keras.initializers", "class_name": "Zeros", "config": {}, "registered_name": null}, "kernel_regularizer": null, "bias_regularizer": null, "activity_regularizer": null, "kernel_constraint": null, "bias_constraint": null}, "name": "BLOCK_3-2_CONV_3", "inbound_nodes": [[["BLOCK_3-2_MULTIPLY", 0, 0, {}]]]}, {"class_name": "Dropout", "config": {"name": "BLOCK_3-2_DO", "trainable": true, "dtype": "float32", "rate": 0.1, "noise_shape": [null, 1, 1, 1], "seed": null}, "name": "BLOCK_3-2_DO", "inbound_nodes": [[["BLOCK_3-2_CONV_3", 0, 0, {}]]]}, {"class_name": "Add", "config": {"name": "BLOCK_3-2_ADD", "trainable": true, "dtype": "float32"}, "name": "BLOCK_3-2_ADD", "inbound_nodes": [[["BLOCK_3-2_DO", 0, 0, {}], ["BLOCK_3-1_CONV_3", 0, 0, {}]]]}, {"class_name": "Conv2D", "config": {"name": "BLOCK_3-3_CONV_1", "trainable": true, "dtype": "float32", "filters": 864, "kernel_size": [1, 1], "strides": [1, 1], "padding": "same", "data_format": "channels_last", "dilation_rate": [1, 1], "groups": 1, "activation": "linear", "use_bias": false, "kernel_initializer": {"module": "keras.initializers", "class_name": "VarianceScaling", "config": {"scale": 2.0, "mode": "fan_out", "distribution": "truncated_normal", "seed": null}, "registered_name": null}, "bias_initializer": {"module": "keras.initializers", "class_name": "Zeros", "config": {}, "registered_name": null}, "kernel_regularizer": null, "bias_regularizer": null, "activity_regularizer": null, "kernel_constraint": null, "bias_constraint": null}, "name": "BLOCK_3-3_CONV_1", "inbound_nodes": [[["BLOCK_3-2_ADD", 0, 0, {}]]]}, {"class_name": "BatchNormalization", "config": {"name": "BLOCK_3-3_BN_1", "trainable": true, "dtype": "float32", "axis": [3], "momentum": 0.999, "epsilon": 0.001, "center": true, "scale": true, "beta_initializer": {"module": "keras.initializers", "class_name": "Zeros", "config": {}, "registered_name": null}, "gamma_initializer": {"module": "keras.initializers", "class_name": "Ones", "config": {}, "registered_name": null}, "moving_mean_initializer": {"module": "keras.initializers", "class_name": "Zeros", "config": {}, "registered_name": null}, "moving_variance_initializer": {"module": "keras.initializers", "class_name": "Ones", "config": {}, "registered_name": null}, "beta_regularizer": null, "gamma_regularizer": null, "beta_constraint": null, "gamma_constraint": null}, "name": "BLOCK_3-3_BN_1", "inbound_nodes": [[["BLOCK_3-3_CONV_1", 0, 0, {}]]]}, {"class_name": "Activation", "config": {"name": "BLOCK_3-3_ACT_1", "trainable": true, "dtype": "float32", "activation": "swish"}, "name": "BLOCK_3-3_ACT_1", "inbound_nodes": [[["BLOCK_3-3_BN_1", 0, 0, {}]]]}, {"class_name": "DepthwiseConv2D", "config": {"name": "BLOCK_3-3_CONV_2", "trainable": true, "dtype": "float32", "kernel_size": [3, 3], "strides": [1, 1], "padding": "same", "data_format": "channels_last", "dilation_rate": [1, 1], "groups": 1, "activation": "linear", "use_bias": false, "bias_initializer": {"module": "keras.initializers", "class_name": "Zeros", "config": {}, "registered_name": null}, "bias_regularizer": null, "activity_regularizer": null, "bias_constraint": null, "depth_multiplier": 1, "depthwise_initializer": {"module": "keras.initializers", "class_name": "GlorotUniform", "config": {"seed": null}, "registered_name": null}, "depthwise_regularizer": null, "depthwise_constraint": null}, "name": "BLOCK_3-3_CONV_2", "inbound_nodes": [[["BLOCK_3-3_ACT_1", 0, 0, {}]]]}, {"class_name": "BatchNormalization", "config": {"name": "BLOCK_3-3_BN_2", "trainable": true, "dtype": "float32", "axis": [3], "momentum": 0.999, "epsilon": 0.001, "center": true, "scale": true, "beta_initializer": {"module": "keras.initializers", "class_name": "Zeros", "config": {}, "registered_name": null}, "gamma_initializer": {"module": "keras.initializers", "class_name": "Ones", "config": {}, "registered_name": null}, "moving_mean_initializer": {"module": "keras.initializers", "class_name": "Zeros", "config": {}, "registered_name": null}, "moving_variance_initializer": {"module": "keras.initializers", "class_name": "Ones", "config": {}, "registered_name": null}, "beta_regularizer": null, "gamma_regularizer": null, "beta_constraint": null, "gamma_constraint": null}, "name": "BLOCK_3-3_BN_2", "inbound_nodes": [[["BLOCK_3-3_CONV_2", 0, 0, {}]]]}, {"class_name": "Activation", "config": {"name": "BLOCK_3-3_ACT_2", "trainable": true, "dtype": "float32", "activation": "swish"}, "name": "BLOCK_3-3_ACT_2", "inbound_nodes": [[["BLOCK_3-3_BN_2", 0, 0, {}]]]}, {"class_name": "GlobalAveragePooling2D", "config": {"name": "BLOCK_3-3_SE_AVG_POOL_1", "trainable": true, "dtype": "float32", "data_format": "channels_last", "keepdims": false}, "name": "BLOCK_3-3_SE_AVG_POOL_1", "inbound_nodes": [[["BLOCK_3-3_ACT_2", 0, 0, {}]]]}, {"class_name": "Reshape", "config": {"name": "BLOCK_3-3_SE_RESHAPE", "trainable": true, "dtype": "float32", "target_shape": [1, 1, 864]}, "name": "BLOCK_3-3_SE_RESHAPE", "inbound_nodes": [[["BLOCK_3-3_SE_AVG_POOL_1", 0, 0, {}]]]}, {"class_name": "Conv2D", "config": {"name": "BLOCK_3-3_SE_CONV_1", "trainable": true, "dtype": "float32", "filters": 27, "kernel_size": [1, 1], "strides": [1, 1], "padding": "same", "data_format": "channels_last", "dilation_rate": [1, 1], "groups": 1, "activation": "swish", "use_bias": false, "kernel_initializer": {"module": "keras.initializers", "class_name": "VarianceScaling", "config": {"scale": 2.0, "mode": "fan_out", "distribution": "truncated_normal", "seed": null}, "registered_name": null}, "bias_initializer": {"module": "keras.initializers", "class_name": "Zeros", "config": {}, "registered_name": null}, "kernel_regularizer": null, "bias_regularizer": null, "activity_regularizer": null, "kernel_constraint": null, "bias_constraint": null}, "name": "BLOCK_3-3_SE_CONV_1", "inbound_nodes": [[["BLOCK_3-3_SE_RESHAPE", 0, 0, {}]]]}, {"class_name": "Conv2D", "config": {"name": "BLOCK_3-3_SE_CONV_2", "trainable": true, "dtype": "float32", "filters": 864, "kernel_size": [1, 1], "strides": [1, 1], "padding": "same", "data_format": "channels_last", "dilation_rate": [1, 1], "groups": 1, "activation": "sigmoid", "use_bias": false, "kernel_initializer": {"module": "keras.initializers", "class_name": "VarianceScaling", "config": {"scale": 2.0, "mode": "fan_out", "distribution": "truncated_normal", "seed": null}, "registered_name": null}, "bias_initializer": {"module": "keras.initializers", "class_name": "Zeros", "config": {}, "registered_name": null}, "kernel_regularizer": null, "bias_regularizer": null, "activity_regularizer": null, "kernel_constraint": null, "bias_constraint": null}, "name": "BLOCK_3-3_SE_CONV_2", "inbound_nodes": [[["BLOCK_3-3_SE_CONV_1", 0, 0, {}]]]}, {"class_name": "Multiply", "config": {"name": "BLOCK_3-3_MULTIPLY", "trainable": true, "dtype": "float32"}, "name": "BLOCK_3-3_MULTIPLY", "inbound_nodes": [[["BLOCK_3-3_ACT_2", 0, 0, {}], ["BLOCK_3-3_SE_CONV_2", 0, 0, {}]]]}, {"class_name": "Conv2D", "config": {"name": "BLOCK_3-3_CONV_3", "trainable": true, "dtype": "float32", "filters": 108, "kernel_size": [1, 1], "strides": [1, 1], "padding": "same", "data_format": "channels_last", "dilation_rate": [1, 1], "groups": 1, "activation": "linear", "use_bias": false, "kernel_initializer": {"module": "keras.initializers", "class_name": "VarianceScaling", "config": {"scale": 2.0, "mode": "fan_out", "distribution": "truncated_normal", "seed": null}, "registered_name": null}, "bias_initializer": {"module": "keras.initializers", "class_name": "Zeros", "config": {}, "registered_name": null}, "kernel_regularizer": null, "bias_regularizer": null, "activity_regularizer": null, "kernel_constraint": null, "bias_constraint": null}, "name": "BLOCK_3-3_CONV_3", "inbound_nodes": [[["BLOCK_3-3_MULTIPLY", 0, 0, {}]]]}, {"class_name": "Dropout", "config": {"name": "BLOCK_3-3_DO", "trainable": true, "dtype": "float32", "rate": 0.1, "noise_shape": [null, 1, 1, 1], "seed": null}, "name": "BLOCK_3-3_DO", "inbound_nodes": [[["BLOCK_3-3_CONV_3", 0, 0, {}]]]}, {"class_name": "Add", "config": {"name": "BLOCK_3-3_ADD", "trainable": true, "dtype": "float32"}, "name": "BLOCK_3-3_ADD", "inbound_nodes": [[["BLOCK_3-3_DO", 0, 0, {}], ["BLOCK_3-2_ADD", 0, 0, {}]]]}, {"class_name": "Conv2D", "config": {"name": "BLOCK_3-4_CONV_1", "trainable": true, "dtype": "float32", "filters": 864, "kernel_size": [1, 1], "strides": [1, 1], "padding": "same", "data_format": "channels_last", "dilation_rate": [1, 1], "groups": 1, "activation": "linear", "use_bias": false, "kernel_initializer": {"module": "keras.initializers", "class_name": "VarianceScaling", "config": {"scale": 2.0, "mode": "fan_out", "distribution": "truncated_normal", "seed": null}, "registered_name": null}, "bias_initializer": {"module": "keras.initializers", "class_name": "Zeros", "config": {}, "registered_name": null}, "kernel_regularizer": null, "bias_regularizer": null, "activity_regularizer": null, "kernel_constraint": null, "bias_constraint": null}, "name": "BLOCK_3-4_CONV_1", "inbound_nodes": [[["BLOCK_3-3_ADD", 0, 0, {}]]]}, {"class_name": "BatchNormalization", "config": {"name": "BLOCK_3-4_BN_1", "trainable": true, "dtype": "float32", "axis": [3], "momentum": 0.999, "epsilon": 0.001, "center": true, "scale": true, "beta_initializer": {"module": "keras.initializers", "class_name": "Zeros", "config": {}, "registered_name": null}, "gamma_initializer": {"module": "keras.initializers", "class_name": "Ones", "config": {}, "registered_name": null}, "moving_mean_initializer": {"module": "keras.initializers", "class_name": "Zeros", "config": {}, "registered_name": null}, "moving_variance_initializer": {"module": "keras.initializers", "class_name": "Ones", "config": {}, "registered_name": null}, "beta_regularizer": null, "gamma_regularizer": null, "beta_constraint": null, "gamma_constraint": null}, "name": "BLOCK_3-4_BN_1", "inbound_nodes": [[["BLOCK_3-4_CONV_1", 0, 0, {}]]]}, {"class_name": "Activation", "config": {"name": "BLOCK_3-4_ACT_1", "trainable": true, "dtype": "float32", "activation": "swish"}, "name": "BLOCK_3-4_ACT_1", "inbound_nodes": [[["BLOCK_3-4_BN_1", 0, 0, {}]]]}, {"class_name": "DepthwiseConv2D", "config": {"name": "BLOCK_3-4_CONV_2", "trainable": true, "dtype": "float32", "kernel_size": [3, 3], "strides": [1, 1], "padding": "same", "data_format": "channels_last", "dilation_rate": [1, 1], "groups": 1, "activation": "linear", "use_bias": false, "bias_initializer": {"module": "keras.initializers", "class_name": "Zeros", "config": {}, "registered_name": null}, "bias_regularizer": null, "activity_regularizer": null, "bias_constraint": null, "depth_multiplier": 1, "depthwise_initializer": {"module": "keras.initializers", "class_name": "GlorotUniform", "config": {"seed": null}, "registered_name": null}, "depthwise_regularizer": null, "depthwise_constraint": null}, "name": "BLOCK_3-4_CONV_2", "inbound_nodes": [[["BLOCK_3-4_ACT_1", 0, 0, {}]]]}, {"class_name": "BatchNormalization", "config": {"name": "BLOCK_3-4_BN_2", "trainable": true, "dtype": "float32", "axis": [3], "momentum": 0.999, "epsilon": 0.001, "center": true, "scale": true, "beta_initializer": {"module": "keras.initializers", "class_name": "Zeros", "config": {}, "registered_name": null}, "gamma_initializer": {"module": "keras.initializers", "class_name": "Ones", "config": {}, "registered_name": null}, "moving_mean_initializer": {"module": "keras.initializers", "class_name": "Zeros", "config": {}, "registered_name": null}, "moving_variance_initializer": {"module": "keras.initializers", "class_name": "Ones", "config": {}, "registered_name": null}, "beta_regularizer": null, "gamma_regularizer": null, "beta_constraint": null, "gamma_constraint": null}, "name": "BLOCK_3-4_BN_2", "inbound_nodes": [[["BLOCK_3-4_CONV_2", 0, 0, {}]]]}, {"class_name": "Activation", "config": {"name": "BLOCK_3-4_ACT_2", "trainable": true, "dtype": "float32", "activation": "swish"}, "name": "BLOCK_3-4_ACT_2", "inbound_nodes": [[["BLOCK_3-4_BN_2", 0, 0, {}]]]}, {"class_name": "GlobalAveragePooling2D", "config": {"name": "BLOCK_3-4_SE_AVG_POOL_1", "trainable": true, "dtype": "float32", "data_format": "channels_last", "keepdims": false}, "name": "BLOCK_3-4_SE_AVG_POOL_1", "inbound_nodes": [[["BLOCK_3-4_ACT_2", 0, 0, {}]]]}, {"class_name": "Reshape", "config": {"name": "BLOCK_3-4_SE_RESHAPE", "trainable": true, "dtype": "float32", "target_shape": [1, 1, 864]}, "name": "BLOCK_3-4_SE_RESHAPE", "inbound_nodes": [[["BLOCK_3-4_SE_AVG_POOL_1", 0, 0, {}]]]}, {"class_name": "Conv2D", "config": {"name": "BLOCK_3-4_SE_CONV_1", "trainable": true, "dtype": "float32", "filters": 27, "kernel_size": [1, 1], "strides": [1, 1], "padding": "same", "data_format": "channels_last", "dilation_rate": [1, 1], "groups": 1, "activation": "swish", "use_bias": false, "kernel_initializer": {"module": "keras.initializers", "class_name": "VarianceScaling", "config": {"scale": 2.0, "mode": "fan_out", "distribution": "truncated_normal", "seed": null}, "registered_name": null}, "bias_initializer": {"module": "keras.initializers", "class_name": "Zeros", "config": {}, "registered_name": null}, "kernel_regularizer": null, "bias_regularizer": null, "activity_regularizer": null, "kernel_constraint": null, "bias_constraint": null}, "name": "BLOCK_3-4_SE_CONV_1", "inbound_nodes": [[["BLOCK_3-4_SE_RESHAPE", 0, 0, {}]]]}, {"class_name": "Conv2D", "config": {"name": "BLOCK_3-4_SE_CONV_2", "trainable": true, "dtype": "float32", "filters": 864, "kernel_size": [1, 1], "strides": [1, 1], "padding": "same", "data_format": "channels_last", "dilation_rate": [1, 1], "groups": 1, "activation": "sigmoid", "use_bias": false, "kernel_initializer": {"module": "keras.initializers", "class_name": "VarianceScaling", "config": {"scale": 2.0, "mode": "fan_out", "distribution": "truncated_normal", "seed": null}, "registered_name": null}, "bias_initializer": {"module": "keras.initializers", "class_name": "Zeros", "config": {}, "registered_name": null}, "kernel_regularizer": null, "bias_regularizer": null, "activity_regularizer": null, "kernel_constraint": null, "bias_constraint": null}, "name": "BLOCK_3-4_SE_CONV_2", "inbound_nodes": [[["BLOCK_3-4_SE_CONV_1", 0, 0, {}]]]}, {"class_name": "Multiply", "config": {"name": "BLOCK_3-4_MULTIPLY", "trainable": true, "dtype": "float32"}, "name": "BLOCK_3-4_MULTIPLY", "inbound_nodes": [[["BLOCK_3-4_ACT_2", 0, 0, {}], ["BLOCK_3-4_SE_CONV_2", 0, 0, {}]]]}, {"class_name": "Conv2D", "config": {"name": "BLOCK_3-4_CONV_3", "trainable": true, "dtype": "float32", "filters": 108, "kernel_size": [1, 1], "strides": [1, 1], "padding": "same", "data_format": "channels_last", "dilation_rate": [1, 1], "groups": 1, "activation": "linear", "use_bias": false, "kernel_initializer": {"module": "keras.initializers", "class_name": "VarianceScaling", "config": {"scale": 2.0, "mode": "fan_out", "distribution": "truncated_normal", "seed": null}, "registered_name": null}, "bias_initializer": {"module": "keras.initializers", "class_name": "Zeros", "config": {}, "registered_name": null}, "kernel_regularizer": null, "bias_regularizer": null, "activity_regularizer": null, "kernel_constraint": null, "bias_constraint": null}, "name": "BLOCK_3-4_CONV_3", "inbound_nodes": [[["BLOCK_3-4_MULTIPLY", 0, 0, {}]]]}, {"class_name": "Dropout", "config": {"name": "BLOCK_3-4_DO", "trainable": true, "dtype": "float32", "rate": 0.1, "noise_shape": [null, 1, 1, 1], "seed": null}, "name": "BLOCK_3-4_DO", "inbound_nodes": [[["BLOCK_3-4_CONV_3", 0, 0, {}]]]}, {"class_name": "Add", "config": {"name": "BLOCK_3-4_ADD", "trainable": true, "dtype": "float32"}, "name": "BLOCK_3-4_ADD", "inbound_nodes": [[["BLOCK_3-4_DO", 0, 0, {}], ["BLOCK_3-3_ADD", 0, 0, {}]]]}, {"class_name": "Conv2D", "config": {"name": "BLOCK_3-5_CONV_1", "trainable": true, "dtype": "float32", "filters": 864, "kernel_size": [1, 1], "strides": [1, 1], "padding": "same", "data_format": "channels_last", "dilation_rate": [1, 1], "groups": 1, "activation": "linear", "use_bias": false, "kernel_initializer": {"module": "keras.initializers", "class_name": "VarianceScaling", "config": {"scale": 2.0, "mode": "fan_out", "distribution": "truncated_normal", "seed": null}, "registered_name": null}, "bias_initializer": {"module": "keras.initializers", "class_name": "Zeros", "config": {}, "registered_name": null}, "kernel_regularizer": null, "bias_regularizer": null, "activity_regularizer": null, "kernel_constraint": null, "bias_constraint": null}, "name": "BLOCK_3-5_CONV_1", "inbound_nodes": [[["BLOCK_3-4_ADD", 0, 0, {}]]]}, {"class_name": "BatchNormalization", "config": {"name": "BLOCK_3-5_BN_1", "trainable": true, "dtype": "float32", "axis": [3], "momentum": 0.999, "epsilon": 0.001, "center": true, "scale": true, "beta_initializer": {"module": "keras.initializers", "class_name": "Zeros", "config": {}, "registered_name": null}, "gamma_initializer": {"module": "keras.initializers", "class_name": "Ones", "config": {}, "registered_name": null}, "moving_mean_initializer": {"module": "keras.initializers", "class_name": "Zeros", "config": {}, "registered_name": null}, "moving_variance_initializer": {"module": "keras.initializers", "class_name": "Ones", "config": {}, "registered_name": null}, "beta_regularizer": null, "gamma_regularizer": null, "beta_constraint": null, "gamma_constraint": null}, "name": "BLOCK_3-5_BN_1", "inbound_nodes": [[["BLOCK_3-5_CONV_1", 0, 0, {}]]]}, {"class_name": "Activation", "config": {"name": "BLOCK_3-5_ACT_1", "trainable": true, "dtype": "float32", "activation": "swish"}, "name": "BLOCK_3-5_ACT_1", "inbound_nodes": [[["BLOCK_3-5_BN_1", 0, 0, {}]]]}, {"class_name": "DepthwiseConv2D", "config": {"name": "BLOCK_3-5_CONV_2", "trainable": true, "dtype": "float32", "kernel_size": [3, 3], "strides": [1, 1], "padding": "same", "data_format": "channels_last", "dilation_rate": [1, 1], "groups": 1, "activation": "linear", "use_bias": false, "bias_initializer": {"module": "keras.initializers", "class_name": "Zeros", "config": {}, "registered_name": null}, "bias_regularizer": null, "activity_regularizer": null, "bias_constraint": null, "depth_multiplier": 1, "depthwise_initializer": {"module": "keras.initializers", "class_name": "GlorotUniform", "config": {"seed": null}, "registered_name": null}, "depthwise_regularizer": null, "depthwise_constraint": null}, "name": "BLOCK_3-5_CONV_2", "inbound_nodes": [[["BLOCK_3-5_ACT_1", 0, 0, {}]]]}, {"class_name": "BatchNormalization", "config": {"name": "BLOCK_3-5_BN_2", "trainable": true, "dtype": "float32", "axis": [3], "momentum": 0.999, "epsilon": 0.001, "center": true, "scale": true, "beta_initializer": {"module": "keras.initializers", "class_name": "Zeros", "config": {}, "registered_name": null}, "gamma_initializer": {"module": "keras.initializers", "class_name": "Ones", "config": {}, "registered_name": null}, "moving_mean_initializer": {"module": "keras.initializers", "class_name": "Zeros", "config": {}, "registered_name": null}, "moving_variance_initializer": {"module": "keras.initializers", "class_name": "Ones", "config": {}, "registered_name": null}, "beta_regularizer": null, "gamma_regularizer": null, "beta_constraint": null, "gamma_constraint": null}, "name": "BLOCK_3-5_BN_2", "inbound_nodes": [[["BLOCK_3-5_CONV_2", 0, 0, {}]]]}, {"class_name": "Activation", "config": {"name": "BLOCK_3-5_ACT_2", "trainable": true, "dtype": "float32", "activation": "swish"}, "name": "BLOCK_3-5_ACT_2", "inbound_nodes": [[["BLOCK_3-5_BN_2", 0, 0, {}]]]}, {"class_name": "GlobalAveragePooling2D", "config": {"name": "BLOCK_3-5_SE_AVG_POOL_1", "trainable": true, "dtype": "float32", "data_format": "channels_last", "keepdims": false}, "name": "BLOCK_3-5_SE_AVG_POOL_1", "inbound_nodes": [[["BLOCK_3-5_ACT_2", 0, 0, {}]]]}, {"class_name": "Reshape", "config": {"name": "BLOCK_3-5_SE_RESHAPE", "trainable": true, "dtype": "float32", "target_shape": [1, 1, 864]}, "name": "BLOCK_3-5_SE_RESHAPE", "inbound_nodes": [[["BLOCK_3-5_SE_AVG_POOL_1", 0, 0, {}]]]}, {"class_name": "Conv2D", "config": {"name": "BLOCK_3-5_SE_CONV_1", "trainable": true, "dtype": "float32", "filters": 27, "kernel_size": [1, 1], "strides": [1, 1], "padding": "same", "data_format": "channels_last", "dilation_rate": [1, 1], "groups": 1, "activation": "swish", "use_bias": false, "kernel_initializer": {"module": "keras.initializers", "class_name": "VarianceScaling", "config": {"scale": 2.0, "mode": "fan_out", "distribution": "truncated_normal", "seed": null}, "registered_name": null}, "bias_initializer": {"module": "keras.initializers", "class_name": "Zeros", "config": {}, "registered_name": null}, "kernel_regularizer": null, "bias_regularizer": null, "activity_regularizer": null, "kernel_constraint": null, "bias_constraint": null}, "name": "BLOCK_3-5_SE_CONV_1", "inbound_nodes": [[["BLOCK_3-5_SE_RESHAPE", 0, 0, {}]]]}, {"class_name": "Conv2D", "config": {"name": "BLOCK_3-5_SE_CONV_2", "trainable": true, "dtype": "float32", "filters": 864, "kernel_size": [1, 1], "strides": [1, 1], "padding": "same", "data_format": "channels_last", "dilation_rate": [1, 1], "groups": 1, "activation": "sigmoid", "use_bias": false, "kernel_initializer": {"module": "keras.initializers", "class_name": "VarianceScaling", "config": {"scale": 2.0, "mode": "fan_out", "distribution": "truncated_normal", "seed": null}, "registered_name": null}, "bias_initializer": {"module": "keras.initializers", "class_name": "Zeros", "config": {}, "registered_name": null}, "kernel_regularizer": null, "bias_regularizer": null, "activity_regularizer": null, "kernel_constraint": null, "bias_constraint": null}, "name": "BLOCK_3-5_SE_CONV_2", "inbound_nodes": [[["BLOCK_3-5_SE_CONV_1", 0, 0, {}]]]}, {"class_name": "Multiply", "config": {"name": "BLOCK_3-5_MULTIPLY", "trainable": true, "dtype": "float32"}, "name": "BLOCK_3-5_MULTIPLY", "inbound_nodes": [[["BLOCK_3-5_ACT_2", 0, 0, {}], ["BLOCK_3-5_SE_CONV_2", 0, 0, {}]]]}, {"class_name": "Conv2D", "config": {"name": "BLOCK_3-5_CONV_3", "trainable": true, "dtype": "float32", "filters": 108, "kernel_size": [1, 1], "strides": [1, 1], "padding": "same", "data_format": "channels_last", "dilation_rate": [1, 1], "groups": 1, "activation": "linear", "use_bias": false, "kernel_initializer": {"module": "keras.initializers", "class_name": "VarianceScaling", "config": {"scale": 2.0, "mode": "fan_out", "distribution": "truncated_normal", "seed": null}, "registered_name": null}, "bias_initializer": {"module": "keras.initializers", "class_name": "Zeros", "config": {}, "registered_name": null}, "kernel_regularizer": null, "bias_regularizer": null, "activity_regularizer": null, "kernel_constraint": null, "bias_constraint": null}, "name": "BLOCK_3-5_CONV_3", "inbound_nodes": [[["BLOCK_3-5_MULTIPLY", 0, 0, {}]]]}, {"class_name": "Dropout", "config": {"name": "BLOCK_3-5_DO", "trainable": true, "dtype": "float32", "rate": 0.1, "noise_shape": [null, 1, 1, 1], "seed": null}, "name": "BLOCK_3-5_DO", "inbound_nodes": [[["BLOCK_3-5_CONV_3", 0, 0, {}]]]}, {"class_name": "Add", "config": {"name": "BLOCK_3-5_ADD", "trainable": true, "dtype": "float32"}, "name": "BLOCK_3-5_ADD", "inbound_nodes": [[["BLOCK_3-5_DO", 0, 0, {}], ["BLOCK_3-4_ADD", 0, 0, {}]]]}, {"class_name": "Conv2D", "config": {"name": "BLOCK_4-1_CONV_1", "trainable": true, "dtype": "float32", "filters": 1536, "kernel_size": [1, 1], "strides": [1, 1], "padding": "same", "data_format": "channels_last", "dilation_rate": [1, 1], "groups": 1, "activation": "linear", "use_bias": false, "kernel_initializer": {"module": "keras.initializers", "class_name": "VarianceScaling", "config": {"scale": 2.0, "mode": "fan_out", "distribution": "truncated_normal", "seed": null}, "registered_name": null}, "bias_initializer": {"module": "keras.initializers", "class_name": "Zeros", "config": {}, "registered_name": null}, "kernel_regularizer": null, "bias_regularizer": null, "activity_regularizer": null, "kernel_constraint": null, "bias_constraint": null}, "name": "BLOCK_4-1_CONV_1", "inbound_nodes": [[["BLOCK_3-5_ADD", 0, 0, {}]]]}, {"class_name": "BatchNormalization", "config": {"name": "BLOCK_4-1_BN_1", "trainable": true, "dtype": "float32", "axis": [3], "momentum": 0.999, "epsilon": 0.001, "center": true, "scale": true, "beta_initializer": {"module": "keras.initializers", "class_name": "Zeros", "config": {}, "registered_name": null}, "gamma_initializer": {"module": "keras.initializers", "class_name": "Ones", "config": {}, "registered_name": null}, "moving_mean_initializer": {"module": "keras.initializers", "class_name": "Zeros", "config": {}, "registered_name": null}, "moving_variance_initializer": {"module": "keras.initializers", "class_name": "Ones", "config": {}, "registered_name": null}, "beta_regularizer": null, "gamma_regularizer": null, "beta_constraint": null, "gamma_constraint": null}, "name": "BLOCK_4-1_BN_1", "inbound_nodes": [[["BLOCK_4-1_CONV_1", 0, 0, {}]]]}, {"class_name": "Activation", "config": {"name": "BLOCK_4-1_ACT_1", "trainable": true, "dtype": "float32", "activation": "swish"}, "name": "BLOCK_4-1_ACT_1", "inbound_nodes": [[["BLOCK_4-1_BN_1", 0, 0, {}]]]}, {"class_name": "ZeroPadding2D", "config": {"name": "BLOCK_4-1_PAD", "trainable": true, "dtype": "float32", "padding": [[1, 1], [1, 1]], "data_format": "channels_last"}, "name": "BLOCK_4-1_PAD", "inbound_nodes": [[["BLOCK_4-1_ACT_1", 0, 0, {}]]]}, {"class_name": "DepthwiseConv2D", "config": {"name": "BLOCK_4-1_CONV_2", "trainable": true, "dtype": "float32", "kernel_size": [3, 3], "strides": [2, 2], "padding": "valid", "data_format": "channels_last", "dilation_rate": [1, 1], "groups": 1, "activation": "linear", "use_bias": false, "bias_initializer": {"module": "keras.initializers", "class_name": "Zeros", "config": {}, "registered_name": null}, "bias_regularizer": null, "activity_regularizer": null, "bias_constraint": null, "depth_multiplier": 1, "depthwise_initializer": {"module": "keras.initializers", "class_name": "GlorotUniform", "config": {"seed": null}, "registered_name": null}, "depthwise_regularizer": null, "depthwise_constraint": null}, "name": "BLOCK_4-1_CONV_2", "inbound_nodes": [[["BLOCK_4-1_PAD", 0, 0, {}]]]}, {"class_name": "BatchNormalization", "config": {"name": "BLOCK_4-1_BN_2", "trainable": true, "dtype": "float32", "axis": [3], "momentum": 0.999, "epsilon": 0.001, "center": true, "scale": true, "beta_initializer": {"module": "keras.initializers", "class_name": "Zeros", "config": {}, "registered_name": null}, "gamma_initializer": {"module": "keras.initializers", "class_name": "Ones", "config": {}, "registered_name": null}, "moving_mean_initializer": {"module": "keras.initializers", "class_name": "Zeros", "config": {}, "registered_name": null}, "moving_variance_initializer": {"module": "keras.initializers", "class_name": "Ones", "config": {}, "registered_name": null}, "beta_regularizer": null, "gamma_regularizer": null, "beta_constraint": null, "gamma_constraint": null}, "name": "BLOCK_4-1_BN_2", "inbound_nodes": [[["BLOCK_4-1_CONV_2", 0, 0, {}]]]}, {"class_name": "Activation", "config": {"name": "BLOCK_4-1_ACT_2", "trainable": true, "dtype": "float32", "activation": "swish"}, "name": "BLOCK_4-1_ACT_2", "inbound_nodes": [[["BLOCK_4-1_BN_2", 0, 0, {}]]]}, {"class_name": "GlobalAveragePooling2D", "config": {"name": "BLOCK_4-1_SE_AVG_POOL_1", "trainable": true, "dtype": "float32", "data_format": "channels_last", "keepdims": false}, "name": "BLOCK_4-1_SE_AVG_POOL_1", "inbound_nodes": [[["BLOCK_4-1_ACT_2", 0, 0, {}]]]}, {"class_name": "Reshape", "config": {"name": "BLOCK_4-1_SE_RESHAPE", "trainable": true, "dtype": "float32", "target_shape": [1, 1, 1536]}, "name": "BLOCK_4-1_SE_RESHAPE", "inbound_nodes": [[["BLOCK_4-1_SE_AVG_POOL_1", 0, 0, {}]]]}, {"class_name": "Conv2D", "config": {"name": "BLOCK_4-1_SE_CONV_1", "trainable": true, "dtype": "float32", "filters": 48, "kernel_size": [1, 1], "strides": [1, 1], "padding": "same", "data_format": "channels_last", "dilation_rate": [1, 1], "groups": 1, "activation": "swish", "use_bias": false, "kernel_initializer": {"module": "keras.initializers", "class_name": "VarianceScaling", "config": {"scale": 2.0, "mode": "fan_out", "distribution": "truncated_normal", "seed": null}, "registered_name": null}, "bias_initializer": {"module": "keras.initializers", "class_name": "Zeros", "config": {}, "registered_name": null}, "kernel_regularizer": null, "bias_regularizer": null, "activity_regularizer": null, "kernel_constraint": null, "bias_constraint": null}, "name": "BLOCK_4-1_SE_CONV_1", "inbound_nodes": [[["BLOCK_4-1_SE_RESHAPE", 0, 0, {}]]]}, {"class_name": "Conv2D", "config": {"name": "BLOCK_4-1_SE_CONV_2", "trainable": true, "dtype": "float32", "filters": 1536, "kernel_size": [1, 1], "strides": [1, 1], "padding": "same", "data_format": "channels_last", "dilation_rate": [1, 1], "groups": 1, "activation": "sigmoid", "use_bias": false, "kernel_initializer": {"module": "keras.initializers", "class_name": "VarianceScaling", "config": {"scale": 2.0, "mode": "fan_out", "distribution": "truncated_normal", "seed": null}, "registered_name": null}, "bias_initializer": {"module": "keras.initializers", "class_name": "Zeros", "config": {}, "registered_name": null}, "kernel_regularizer": null, "bias_regularizer": null, "activity_regularizer": null, "kernel_constraint": null, "bias_constraint": null}, "name": "BLOCK_4-1_SE_CONV_2", "inbound_nodes": [[["BLOCK_4-1_SE_CONV_1", 0, 0, {}]]]}, {"class_name": "Multiply", "config": {"name": "BLOCK_4-1_MULTIPLY", "trainable": true, "dtype": "float32"}, "name": "BLOCK_4-1_MULTIPLY", "inbound_nodes": [[["BLOCK_4-1_ACT_2", 0, 0, {}], ["BLOCK_4-1_SE_CONV_2", 0, 0, {}]]]}, {"class_name": "Conv2D", "config": {"name": "BLOCK_4-1_CONV_3", "trainable": true, "dtype": "float32", "filters": 192, "kernel_size": [1, 1], "strides": [1, 1], "padding": "same", "data_format": "channels_last", "dilation_rate": [1, 1], "groups": 1, "activation": "linear", "use_bias": false, "kernel_initializer": {"module": "keras.initializers", "class_name": "VarianceScaling", "config": {"scale": 2.0, "mode": "fan_out", "distribution": "truncated_normal", "seed": null}, "registered_name": null}, "bias_initializer": {"module": "keras.initializers", "class_name": "Zeros", "config": {}, "registered_name": null}, "kernel_regularizer": null, "bias_regularizer": null, "activity_regularizer": null, "kernel_constraint": null, "bias_constraint": null}, "name": "BLOCK_4-1_CONV_3", "inbound_nodes": [[["BLOCK_4-1_MULTIPLY", 0, 0, {}]]]}, {"class_name": "Conv2D", "config": {"name": "BLOCK_4-2_CONV_1", "trainable": true, "dtype": "float32", "filters": 1536, "kernel_size": [1, 1], "strides": [1, 1], "padding": "same", "data_format": "channels_last", "dilation_rate": [1, 1], "groups": 1, "activation": "linear", "use_bias": false, "kernel_initializer": {"module": "keras.initializers", "class_name": "VarianceScaling", "config": {"scale": 2.0, "mode": "fan_out", "distribution": "truncated_normal", "seed": null}, "registered_name": null}, "bias_initializer": {"module": "keras.initializers", "class_name": "Zeros", "config": {}, "registered_name": null}, "kernel_regularizer": null, "bias_regularizer": null, "activity_regularizer": null, "kernel_constraint": null, "bias_constraint": null}, "name": "BLOCK_4-2_CONV_1", "inbound_nodes": [[["BLOCK_4-1_CONV_3", 0, 0, {}]]]}, {"class_name": "BatchNormalization", "config": {"name": "BLOCK_4-2_BN_1", "trainable": true, "dtype": "float32", "axis": [3], "momentum": 0.999, "epsilon": 0.001, "center": true, "scale": true, "beta_initializer": {"module": "keras.initializers", "class_name": "Zeros", "config": {}, "registered_name": null}, "gamma_initializer": {"module": "keras.initializers", "class_name": "Ones", "config": {}, "registered_name": null}, "moving_mean_initializer": {"module": "keras.initializers", "class_name": "Zeros", "config": {}, "registered_name": null}, "moving_variance_initializer": {"module": "keras.initializers", "class_name": "Ones", "config": {}, "registered_name": null}, "beta_regularizer": null, "gamma_regularizer": null, "beta_constraint": null, "gamma_constraint": null}, "name": "BLOCK_4-2_BN_1", "inbound_nodes": [[["BLOCK_4-2_CONV_1", 0, 0, {}]]]}, {"class_name": "Activation", "config": {"name": "BLOCK_4-2_ACT_1", "trainable": true, "dtype": "float32", "activation": "swish"}, "name": "BLOCK_4-2_ACT_1", "inbound_nodes": [[["BLOCK_4-2_BN_1", 0, 0, {}]]]}, {"class_name": "DepthwiseConv2D", "config": {"name": "BLOCK_4-2_CONV_2", "trainable": true, "dtype": "float32", "kernel_size": [3, 3], "strides": [1, 1], "padding": "same", "data_format": "channels_last", "dilation_rate": [1, 1], "groups": 1, "activation": "linear", "use_bias": false, "bias_initializer": {"module": "keras.initializers", "class_name": "Zeros", "config": {}, "registered_name": null}, "bias_regularizer": null, "activity_regularizer": null, "bias_constraint": null, "depth_multiplier": 1, "depthwise_initializer": {"module": "keras.initializers", "class_name": "GlorotUniform", "config": {"seed": null}, "registered_name": null}, "depthwise_regularizer": null, "depthwise_constraint": null}, "name": "BLOCK_4-2_CONV_2", "inbound_nodes": [[["BLOCK_4-2_ACT_1", 0, 0, {}]]]}, {"class_name": "BatchNormalization", "config": {"name": "BLOCK_4-2_BN_2", "trainable": true, "dtype": "float32", "axis": [3], "momentum": 0.999, "epsilon": 0.001, "center": true, "scale": true, "beta_initializer": {"module": "keras.initializers", "class_name": "Zeros", "config": {}, "registered_name": null}, "gamma_initializer": {"module": "keras.initializers", "class_name": "Ones", "config": {}, "registered_name": null}, "moving_mean_initializer": {"module": "keras.initializers", "class_name": "Zeros", "config": {}, "registered_name": null}, "moving_variance_initializer": {"module": "keras.initializers", "class_name": "Ones", "config": {}, "registered_name": null}, "beta_regularizer": null, "gamma_regularizer": null, "beta_constraint": null, "gamma_constraint": null}, "name": "BLOCK_4-2_BN_2", "inbound_nodes": [[["BLOCK_4-2_CONV_2", 0, 0, {}]]]}, {"class_name": "Activation", "config": {"name": "BLOCK_4-2_ACT_2", "trainable": true, "dtype": "float32", "activation": "swish"}, "name": "BLOCK_4-2_ACT_2", "inbound_nodes": [[["BLOCK_4-2_BN_2", 0, 0, {}]]]}, {"class_name": "GlobalAveragePooling2D", "config": {"name": "BLOCK_4-2_SE_AVG_POOL_1", "trainable": true, "dtype": "float32", "data_format": "channels_last", "keepdims": false}, "name": "BLOCK_4-2_SE_AVG_POOL_1", "inbound_nodes": [[["BLOCK_4-2_ACT_2", 0, 0, {}]]]}, {"class_name": "Reshape", "config": {"name": "BLOCK_4-2_SE_RESHAPE", "trainable": true, "dtype": "float32", "target_shape": [1, 1, 1536]}, "name": "BLOCK_4-2_SE_RESHAPE", "inbound_nodes": [[["BLOCK_4-2_SE_AVG_POOL_1", 0, 0, {}]]]}, {"class_name": "Conv2D", "config": {"name": "BLOCK_4-2_SE_CONV_1", "trainable": true, "dtype": "float32", "filters": 48, "kernel_size": [1, 1], "strides": [1, 1], "padding": "same", "data_format": "channels_last", "dilation_rate": [1, 1], "groups": 1, "activation": "swish", "use_bias": false, "kernel_initializer": {"module": "keras.initializers", "class_name": "VarianceScaling", "config": {"scale": 2.0, "mode": "fan_out", "distribution": "truncated_normal", "seed": null}, "registered_name": null}, "bias_initializer": {"module": "keras.initializers", "class_name": "Zeros", "config": {}, "registered_name": null}, "kernel_regularizer": null, "bias_regularizer": null, "activity_regularizer": null, "kernel_constraint": null, "bias_constraint": null}, "name": "BLOCK_4-2_SE_CONV_1", "inbound_nodes": [[["BLOCK_4-2_SE_RESHAPE", 0, 0, {}]]]}, {"class_name": "Conv2D", "config": {"name": "BLOCK_4-2_SE_CONV_2", "trainable": true, "dtype": "float32", "filters": 1536, "kernel_size": [1, 1], "strides": [1, 1], "padding": "same", "data_format": "channels_last", "dilation_rate": [1, 1], "groups": 1, "activation": "sigmoid", "use_bias": false, "kernel_initializer": {"module": "keras.initializers", "class_name": "VarianceScaling", "config": {"scale": 2.0, "mode": "fan_out", "distribution": "truncated_normal", "seed": null}, "registered_name": null}, "bias_initializer": {"module": "keras.initializers", "class_name": "Zeros", "config": {}, "registered_name": null}, "kernel_regularizer": null, "bias_regularizer": null, "activity_regularizer": null, "kernel_constraint": null, "bias_constraint": null}, "name": "BLOCK_4-2_SE_CONV_2", "inbound_nodes": [[["BLOCK_4-2_SE_CONV_1", 0, 0, {}]]]}, {"class_name": "Multiply", "config": {"name": "BLOCK_4-2_MULTIPLY", "trainable": true, "dtype": "float32"}, "name": "BLOCK_4-2_MULTIPLY", "inbound_nodes": [[["BLOCK_4-2_ACT_2", 0, 0, {}], ["BLOCK_4-2_SE_CONV_2", 0, 0, {}]]]}, {"class_name": "Conv2D", "config": {"name": "BLOCK_4-2_CONV_3", "trainable": true, "dtype": "float32", "filters": 192, "kernel_size": [1, 1], "strides": [1, 1], "padding": "same", "data_format": "channels_last", "dilation_rate": [1, 1], "groups": 1, "activation": "linear", "use_bias": false, "kernel_initializer": {"module": "keras.initializers", "class_name": "VarianceScaling", "config": {"scale": 2.0, "mode": "fan_out", "distribution": "truncated_normal", "seed": null}, "registered_name": null}, "bias_initializer": {"module": "keras.initializers", "class_name": "Zeros", "config": {}, "registered_name": null}, "kernel_regularizer": null, "bias_regularizer": null, "activity_regularizer": null, "kernel_constraint": null, "bias_constraint": null}, "name": "BLOCK_4-2_CONV_3", "inbound_nodes": [[["BLOCK_4-2_MULTIPLY", 0, 0, {}]]]}, {"class_name": "Dropout", "config": {"name": "BLOCK_4-2_DO", "trainable": true, "dtype": "float32", "rate": 0.1, "noise_shape": [null, 1, 1, 1], "seed": null}, "name": "BLOCK_4-2_DO", "inbound_nodes": [[["BLOCK_4-2_CONV_3", 0, 0, {}]]]}, {"class_name": "Add", "config": {"name": "BLOCK_4-2_ADD", "trainable": true, "dtype": "float32"}, "name": "BLOCK_4-2_ADD", "inbound_nodes": [[["BLOCK_4-2_DO", 0, 0, {}], ["BLOCK_4-1_CONV_3", 0, 0, {}]]]}, {"class_name": "Conv2D", "config": {"name": "BLOCK_4-3_CONV_1", "trainable": true, "dtype": "float32", "filters": 1536, "kernel_size": [1, 1], "strides": [1, 1], "padding": "same", "data_format": "channels_last", "dilation_rate": [1, 1], "groups": 1, "activation": "linear", "use_bias": false, "kernel_initializer": {"module": "keras.initializers", "class_name": "VarianceScaling", "config": {"scale": 2.0, "mode": "fan_out", "distribution": "truncated_normal", "seed": null}, "registered_name": null}, "bias_initializer": {"module": "keras.initializers", "class_name": "Zeros", "config": {}, "registered_name": null}, "kernel_regularizer": null, "bias_regularizer": null, "activity_regularizer": null, "kernel_constraint": null, "bias_constraint": null}, "name": "BLOCK_4-3_CONV_1", "inbound_nodes": [[["BLOCK_4-2_ADD", 0, 0, {}]]]}, {"class_name": "BatchNormalization", "config": {"name": "BLOCK_4-3_BN_1", "trainable": true, "dtype": "float32", "axis": [3], "momentum": 0.999, "epsilon": 0.001, "center": true, "scale": true, "beta_initializer": {"module": "keras.initializers", "class_name": "Zeros", "config": {}, "registered_name": null}, "gamma_initializer": {"module": "keras.initializers", "class_name": "Ones", "config": {}, "registered_name": null}, "moving_mean_initializer": {"module": "keras.initializers", "class_name": "Zeros", "config": {}, "registered_name": null}, "moving_variance_initializer": {"module": "keras.initializers", "class_name": "Ones", "config": {}, "registered_name": null}, "beta_regularizer": null, "gamma_regularizer": null, "beta_constraint": null, "gamma_constraint": null}, "name": "BLOCK_4-3_BN_1", "inbound_nodes": [[["BLOCK_4-3_CONV_1", 0, 0, {}]]]}, {"class_name": "Activation", "config": {"name": "BLOCK_4-3_ACT_1", "trainable": true, "dtype": "float32", "activation": "swish"}, "name": "BLOCK_4-3_ACT_1", "inbound_nodes": [[["BLOCK_4-3_BN_1", 0, 0, {}]]]}, {"class_name": "DepthwiseConv2D", "config": {"name": "BLOCK_4-3_CONV_2", "trainable": true, "dtype": "float32", "kernel_size": [3, 3], "strides": [1, 1], "padding": "same", "data_format": "channels_last", "dilation_rate": [1, 1], "groups": 1, "activation": "linear", "use_bias": false, "bias_initializer": {"module": "keras.initializers", "class_name": "Zeros", "config": {}, "registered_name": null}, "bias_regularizer": null, "activity_regularizer": null, "bias_constraint": null, "depth_multiplier": 1, "depthwise_initializer": {"module": "keras.initializers", "class_name": "GlorotUniform", "config": {"seed": null}, "registered_name": null}, "depthwise_regularizer": null, "depthwise_constraint": null}, "name": "BLOCK_4-3_CONV_2", "inbound_nodes": [[["BLOCK_4-3_ACT_1", 0, 0, {}]]]}, {"class_name": "BatchNormalization", "config": {"name": "BLOCK_4-3_BN_2", "trainable": true, "dtype": "float32", "axis": [3], "momentum": 0.999, "epsilon": 0.001, "center": true, "scale": true, "beta_initializer": {"module": "keras.initializers", "class_name": "Zeros", "config": {}, "registered_name": null}, "gamma_initializer": {"module": "keras.initializers", "class_name": "Ones", "config": {}, "registered_name": null}, "moving_mean_initializer": {"module": "keras.initializers", "class_name": "Zeros", "config": {}, "registered_name": null}, "moving_variance_initializer": {"module": "keras.initializers", "class_name": "Ones", "config": {}, "registered_name": null}, "beta_regularizer": null, "gamma_regularizer": null, "beta_constraint": null, "gamma_constraint": null}, "name": "BLOCK_4-3_BN_2", "inbound_nodes": [[["BLOCK_4-3_CONV_2", 0, 0, {}]]]}, {"class_name": "Activation", "config": {"name": "BLOCK_4-3_ACT_2", "trainable": true, "dtype": "float32", "activation": "swish"}, "name": "BLOCK_4-3_ACT_2", "inbound_nodes": [[["BLOCK_4-3_BN_2", 0, 0, {}]]]}, {"class_name": "GlobalAveragePooling2D", "config": {"name": "BLOCK_4-3_SE_AVG_POOL_1", "trainable": true, "dtype": "float32", "data_format": "channels_last", "keepdims": false}, "name": "BLOCK_4-3_SE_AVG_POOL_1", "inbound_nodes": [[["BLOCK_4-3_ACT_2", 0, 0, {}]]]}, {"class_name": "Reshape", "config": {"name": "BLOCK_4-3_SE_RESHAPE", "trainable": true, "dtype": "float32", "target_shape": [1, 1, 1536]}, "name": "BLOCK_4-3_SE_RESHAPE", "inbound_nodes": [[["BLOCK_4-3_SE_AVG_POOL_1", 0, 0, {}]]]}, {"class_name": "Conv2D", "config": {"name": "BLOCK_4-3_SE_CONV_1", "trainable": true, "dtype": "float32", "filters": 48, "kernel_size": [1, 1], "strides": [1, 1], "padding": "same", "data_format": "channels_last", "dilation_rate": [1, 1], "groups": 1, "activation": "swish", "use_bias": false, "kernel_initializer": {"module": "keras.initializers", "class_name": "VarianceScaling", "config": {"scale": 2.0, "mode": "fan_out", "distribution": "truncated_normal", "seed": null}, "registered_name": null}, "bias_initializer": {"module": "keras.initializers", "class_name": "Zeros", "config": {}, "registered_name": null}, "kernel_regularizer": null, "bias_regularizer": null, "activity_regularizer": null, "kernel_constraint": null, "bias_constraint": null}, "name": "BLOCK_4-3_SE_CONV_1", "inbound_nodes": [[["BLOCK_4-3_SE_RESHAPE", 0, 0, {}]]]}, {"class_name": "Conv2D", "config": {"name": "BLOCK_4-3_SE_CONV_2", "trainable": true, "dtype": "float32", "filters": 1536, "kernel_size": [1, 1], "strides": [1, 1], "padding": "same", "data_format": "channels_last", "dilation_rate": [1, 1], "groups": 1, "activation": "sigmoid", "use_bias": false, "kernel_initializer": {"module": "keras.initializers", "class_name": "VarianceScaling", "config": {"scale": 2.0, "mode": "fan_out", "distribution": "truncated_normal", "seed": null}, "registered_name": null}, "bias_initializer": {"module": "keras.initializers", "class_name": "Zeros", "config": {}, "registered_name": null}, "kernel_regularizer": null, "bias_regularizer": null, "activity_regularizer": null, "kernel_constraint": null, "bias_constraint": null}, "name": "BLOCK_4-3_SE_CONV_2", "inbound_nodes": [[["BLOCK_4-3_SE_CONV_1", 0, 0, {}]]]}, {"class_name": "Multiply", "config": {"name": "BLOCK_4-3_MULTIPLY", "trainable": true, "dtype": "float32"}, "name": "BLOCK_4-3_MULTIPLY", "inbound_nodes": [[["BLOCK_4-3_ACT_2", 0, 0, {}], ["BLOCK_4-3_SE_CONV_2", 0, 0, {}]]]}, {"class_name": "Conv2D", "config": {"name": "BLOCK_4-3_CONV_3", "trainable": true, "dtype": "float32", "filters": 192, "kernel_size": [1, 1], "strides": [1, 1], "padding": "same", "data_format": "channels_last", "dilation_rate": [1, 1], "groups": 1, "activation": "linear", "use_bias": false, "kernel_initializer": {"module": "keras.initializers", "class_name": "VarianceScaling", "config": {"scale": 2.0, "mode": "fan_out", "distribution": "truncated_normal", "seed": null}, "registered_name": null}, "bias_initializer": {"module": "keras.initializers", "class_name": "Zeros", "config": {}, "registered_name": null}, "kernel_regularizer": null, "bias_regularizer": null, "activity_regularizer": null, "kernel_constraint": null, "bias_constraint": null}, "name": "BLOCK_4-3_CONV_3", "inbound_nodes": [[["BLOCK_4-3_MULTIPLY", 0, 0, {}]]]}, {"class_name": "Dropout", "config": {"name": "BLOCK_4-3_DO", "trainable": true, "dtype": "float32", "rate": 0.1, "noise_shape": [null, 1, 1, 1], "seed": null}, "name": "BLOCK_4-3_DO", "inbound_nodes": [[["BLOCK_4-3_CONV_3", 0, 0, {}]]]}, {"class_name": "Add", "config": {"name": "BLOCK_4-3_ADD", "trainable": true, "dtype": "float32"}, "name": "BLOCK_4-3_ADD", "inbound_nodes": [[["BLOCK_4-3_DO", 0, 0, {}], ["BLOCK_4-2_ADD", 0, 0, {}]]]}, {"class_name": "Conv2D", "config": {"name": "BLOCK_4-4_CONV_1", "trainable": true, "dtype": "float32", "filters": 1536, "kernel_size": [1, 1], "strides": [1, 1], "padding": "same", "data_format": "channels_last", "dilation_rate": [1, 1], "groups": 1, "activation": "linear", "use_bias": false, "kernel_initializer": {"module": "keras.initializers", "class_name": "VarianceScaling", "config": {"scale": 2.0, "mode": "fan_out", "distribution": "truncated_normal", "seed": null}, "registered_name": null}, "bias_initializer": {"module": "keras.initializers", "class_name": "Zeros", "config": {}, "registered_name": null}, "kernel_regularizer": null, "bias_regularizer": null, "activity_regularizer": null, "kernel_constraint": null, "bias_constraint": null}, "name": "BLOCK_4-4_CONV_1", "inbound_nodes": [[["BLOCK_4-3_ADD", 0, 0, {}]]]}, {"class_name": "BatchNormalization", "config": {"name": "BLOCK_4-4_BN_1", "trainable": true, "dtype": "float32", "axis": [3], "momentum": 0.999, "epsilon": 0.001, "center": true, "scale": true, "beta_initializer": {"module": "keras.initializers", "class_name": "Zeros", "config": {}, "registered_name": null}, "gamma_initializer": {"module": "keras.initializers", "class_name": "Ones", "config": {}, "registered_name": null}, "moving_mean_initializer": {"module": "keras.initializers", "class_name": "Zeros", "config": {}, "registered_name": null}, "moving_variance_initializer": {"module": "keras.initializers", "class_name": "Ones", "config": {}, "registered_name": null}, "beta_regularizer": null, "gamma_regularizer": null, "beta_constraint": null, "gamma_constraint": null}, "name": "BLOCK_4-4_BN_1", "inbound_nodes": [[["BLOCK_4-4_CONV_1", 0, 0, {}]]]}, {"class_name": "Activation", "config": {"name": "BLOCK_4-4_ACT_1", "trainable": true, "dtype": "float32", "activation": "swish"}, "name": "BLOCK_4-4_ACT_1", "inbound_nodes": [[["BLOCK_4-4_BN_1", 0, 0, {}]]]}, {"class_name": "DepthwiseConv2D", "config": {"name": "BLOCK_4-4_CONV_2", "trainable": true, "dtype": "float32", "kernel_size": [3, 3], "strides": [1, 1], "padding": "same", "data_format": "channels_last", "dilation_rate": [1, 1], "groups": 1, "activation": "linear", "use_bias": false, "bias_initializer": {"module": "keras.initializers", "class_name": "Zeros", "config": {}, "registered_name": null}, "bias_regularizer": null, "activity_regularizer": null, "bias_constraint": null, "depth_multiplier": 1, "depthwise_initializer": {"module": "keras.initializers", "class_name": "GlorotUniform", "config": {"seed": null}, "registered_name": null}, "depthwise_regularizer": null, "depthwise_constraint": null}, "name": "BLOCK_4-4_CONV_2", "inbound_nodes": [[["BLOCK_4-4_ACT_1", 0, 0, {}]]]}, {"class_name": "BatchNormalization", "config": {"name": "BLOCK_4-4_BN_2", "trainable": true, "dtype": "float32", "axis": [3], "momentum": 0.999, "epsilon": 0.001, "center": true, "scale": true, "beta_initializer": {"module": "keras.initializers", "class_name": "Zeros", "config": {}, "registered_name": null}, "gamma_initializer": {"module": "keras.initializers", "class_name": "Ones", "config": {}, "registered_name": null}, "moving_mean_initializer": {"module": "keras.initializers", "class_name": "Zeros", "config": {}, "registered_name": null}, "moving_variance_initializer": {"module": "keras.initializers", "class_name": "Ones", "config": {}, "registered_name": null}, "beta_regularizer": null, "gamma_regularizer": null, "beta_constraint": null, "gamma_constraint": null}, "name": "BLOCK_4-4_BN_2", "inbound_nodes": [[["BLOCK_4-4_CONV_2", 0, 0, {}]]]}, {"class_name": "Activation", "config": {"name": "BLOCK_4-4_ACT_2", "trainable": true, "dtype": "float32", "activation": "swish"}, "name": "BLOCK_4-4_ACT_2", "inbound_nodes": [[["BLOCK_4-4_BN_2", 0, 0, {}]]]}, {"class_name": "GlobalAveragePooling2D", "config": {"name": "BLOCK_4-4_SE_AVG_POOL_1", "trainable": true, "dtype": "float32", "data_format": "channels_last", "keepdims": false}, "name": "BLOCK_4-4_SE_AVG_POOL_1", "inbound_nodes": [[["BLOCK_4-4_ACT_2", 0, 0, {}]]]}, {"class_name": "Reshape", "config": {"name": "BLOCK_4-4_SE_RESHAPE", "trainable": true, "dtype": "float32", "target_shape": [1, 1, 1536]}, "name": "BLOCK_4-4_SE_RESHAPE", "inbound_nodes": [[["BLOCK_4-4_SE_AVG_POOL_1", 0, 0, {}]]]}, {"class_name": "Conv2D", "config": {"name": "BLOCK_4-4_SE_CONV_1", "trainable": true, "dtype": "float32", "filters": 48, "kernel_size": [1, 1], "strides": [1, 1], "padding": "same", "data_format": "channels_last", "dilation_rate": [1, 1], "groups": 1, "activation": "swish", "use_bias": false, "kernel_initializer": {"module": "keras.initializers", "class_name": "VarianceScaling", "config": {"scale": 2.0, "mode": "fan_out", "distribution": "truncated_normal", "seed": null}, "registered_name": null}, "bias_initializer": {"module": "keras.initializers", "class_name": "Zeros", "config": {}, "registered_name": null}, "kernel_regularizer": null, "bias_regularizer": null, "activity_regularizer": null, "kernel_constraint": null, "bias_constraint": null}, "name": "BLOCK_4-4_SE_CONV_1", "inbound_nodes": [[["BLOCK_4-4_SE_RESHAPE", 0, 0, {}]]]}, {"class_name": "Conv2D", "config": {"name": "BLOCK_4-4_SE_CONV_2", "trainable": true, "dtype": "float32", "filters": 1536, "kernel_size": [1, 1], "strides": [1, 1], "padding": "same", "data_format": "channels_last", "dilation_rate": [1, 1], "groups": 1, "activation": "sigmoid", "use_bias": false, "kernel_initializer": {"module": "keras.initializers", "class_name": "VarianceScaling", "config": {"scale": 2.0, "mode": "fan_out", "distribution": "truncated_normal", "seed": null}, "registered_name": null}, "bias_initializer": {"module": "keras.initializers", "class_name": "Zeros", "config": {}, "registered_name": null}, "kernel_regularizer": null, "bias_regularizer": null, "activity_regularizer": null, "kernel_constraint": null, "bias_constraint": null}, "name": "BLOCK_4-4_SE_CONV_2", "inbound_nodes": [[["BLOCK_4-4_SE_CONV_1", 0, 0, {}]]]}, {"class_name": "Multiply", "config": {"name": "BLOCK_4-4_MULTIPLY", "trainable": true, "dtype": "float32"}, "name": "BLOCK_4-4_MULTIPLY", "inbound_nodes": [[["BLOCK_4-4_ACT_2", 0, 0, {}], ["BLOCK_4-4_SE_CONV_2", 0, 0, {}]]]}, {"class_name": "Conv2D", "config": {"name": "BLOCK_4-4_CONV_3", "trainable": true, "dtype": "float32", "filters": 192, "kernel_size": [1, 1], "strides": [1, 1], "padding": "same", "data_format": "channels_last", "dilation_rate": [1, 1], "groups": 1, "activation": "linear", "use_bias": false, "kernel_initializer": {"module": "keras.initializers", "class_name": "VarianceScaling", "config": {"scale": 2.0, "mode": "fan_out", "distribution": "truncated_normal", "seed": null}, "registered_name": null}, "bias_initializer": {"module": "keras.initializers", "class_name": "Zeros", "config": {}, "registered_name": null}, "kernel_regularizer": null, "bias_regularizer": null, "activity_regularizer": null, "kernel_constraint": null, "bias_constraint": null}, "name": "BLOCK_4-4_CONV_3", "inbound_nodes": [[["BLOCK_4-4_MULTIPLY", 0, 0, {}]]]}, {"class_name": "Dropout", "config": {"name": "BLOCK_4-4_DO", "trainable": true, "dtype": "float32", "rate": 0.1, "noise_shape": [null, 1, 1, 1], "seed": null}, "name": "BLOCK_4-4_DO", "inbound_nodes": [[["BLOCK_4-4_CONV_3", 0, 0, {}]]]}, {"class_name": "Add", "config": {"name": "BLOCK_4-4_ADD", "trainable": true, "dtype": "float32"}, "name": "BLOCK_4-4_ADD", "inbound_nodes": [[["BLOCK_4-4_DO", 0, 0, {}], ["BLOCK_4-3_ADD", 0, 0, {}]]]}, {"class_name": "BatchNormalization", "config": {"name": "BNORM_POST_NOQUANT", "trainable": true, "dtype": "float32", "axis": [3], "momentum": 0.99, "epsilon": 0.001, "center": true, "scale": true, "beta_initializer": {"module": "keras.initializers", "class_name": "Zeros", "config": {}, "registered_name": null}, "gamma_initializer": {"module": "keras.initializers", "class_name": "Ones", "config": {}, "registered_name": null}, "moving_mean_initializer": {"module": "keras.initializers", "class_name": "Zeros", "config": {}, "registered_name": null}, "moving_variance_initializer": {"module": "keras.initializers", "class_name": "Ones", "config": {}, "registered_name": null}, "beta_regularizer": null, "gamma_regularizer": null, "beta_constraint": null, "gamma_constraint": null}, "name": "BNORM_POST_NOQUANT", "inbound_nodes": [[["BLOCK_4-4_ADD", 0, 0, {}]]]}, {"class_name": "Activation", "config": {"name": "ACT_POST", "trainable": true, "dtype": "float32", "activation": "relu"}, "name": "ACT_POST", "inbound_nodes": [[["BNORM_POST_NOQUANT", 0, 0, {}]]]}, {"class_name": "Conv2D", "config": {"name": "POST_CONV_1", "trainable": true, "dtype": "float32", "filters": 1024, "kernel_size": [3, 3], "strides": [1, 1], "padding": "valid", "data_format": "channels_last", "dilation_rate": [1, 1], "groups": 1, "activation": "linear", "use_bias": false, "kernel_initializer": {"module": "keras.initializers", "class_name": "HeNormal", "config": {"seed": 42}, "registered_name": null}, "bias_initializer": {"module": "keras.initializers", "class_name": "Zeros", "config": {}, "registered_name": null}, "kernel_regularizer": null, "bias_regularizer": null, "activity_regularizer": null, "kernel_constraint": null, "bias_constraint": null}, "name": "POST_CONV_1", "inbound_nodes": [[["ACT_POST", 0, 0, {}]]]}, {"class_name": "BatchNormalization", "config": {"name": "POST_BN_1", "trainable": true, "dtype": "float32", "axis": [3], "momentum": 0.99, "epsilon": 0.001, "center": true, "scale": true, "beta_initializer": {"module": "keras.initializers", "class_name": "Zeros", "config": {}, "registered_name": null}, "gamma_initializer": {"module": "keras.initializers", "class_name": "Ones", "config": {}, "registered_name": null}, "moving_mean_initializer": {"module": "keras.initializers", "class_name": "Zeros", "config": {}, "registered_name": null}, "moving_variance_initializer": {"module": "keras.initializers", "class_name": "Ones", "config": {}, "registered_name": null}, "beta_regularizer": null, "gamma_regularizer": null, "beta_constraint": null, "gamma_constraint": null}, "name": "POST_BN_1", "inbound_nodes": [[["POST_CONV_1", 0, 0, {}]]]}, {"class_name": "Activation", "config": {"name": "POST_ACT_1", "trainable": true, "dtype": "float32", "activation": "relu"}, "name": "POST_ACT_1", "inbound_nodes": [[["POST_BN_1", 0, 0, {}]]]}, {"class_name": "GlobalAveragePooling2D", "config": {"name": "GLOBAL_AVG_POOL", "trainable": true, "dtype": "float32", "data_format": "channels_last", "keepdims": false}, "name": "GLOBAL_AVG_POOL", "inbound_nodes": [[["POST_ACT_1", 0, 0, {}]]]}, {"class_name": "Dropout", "config": {"name": "CONCAT_DO", "trainable": true, "dtype": "float32", "rate": 0.25, "noise_shape": null, "seed": 42}, "name": "CONCAT_DO", "inbound_nodes": [[["GLOBAL_AVG_POOL", 0, 0, {}]]]}, {"class_name": "Dense", "config": {"name": "CLASS_DENSE_LAYER", "trainable": true, "dtype": "float32", "units": 6522, "activation": "linear", "use_bias": true, "kernel_initializer": {"module": "keras.initializers", "class_name": "HeNormal", "config": {"seed": 42}, "registered_name": null}, "bias_initializer": {"module": "keras.initializers", "class_name": "Zeros", "config": {}, "registered_name": null}, "kernel_regularizer": null, "bias_regularizer": null, "activity_regularizer": null, "kernel_constraint": null, "bias_constraint": null}, "name": "CLASS_DENSE_LAYER", "inbound_nodes": [[["CONCAT_DO", 0, 0, {}]]]}, {"class_name": "Activation", "config": {"name": "CLASS_ACTIVATION", "trainable": true, "dtype": "float32", "activation": "sigmoid"}, "name": "CLASS_ACTIVATION", "inbound_nodes": [[["CLASS_DENSE_LAYER", 0, 0, {}]]]}], "input_layers": [["INPUT", 0, 0]], "output_layers": [["CLASS_ACTIVATION", 0, 0]]}}}, "weightsManifest": [{"paths": ["group1-shard1of13.bin", "group1-shard2of13.bin", "group1-shard3of13.bin", "group1-shard4of13.bin", "group1-shard5of13.bin", "group1-shard6of13.bin", "group1-shard7of13.bin", "group1-shard8of13.bin", "group1-shard9of13.bin", "group1-shard10of13.bin", "group1-shard11of13.bin", "group1-shard12of13.bin", "group1-shard13of13.bin"], "weights": [{"name": "BLOCK_1-1_BN_1/gamma", "shape": [72], "dtype": "float32"}, {"name": "BLOCK_1-1_BN_1/beta", "shape": [72], "dtype": "float32"}, {"name": "BLOCK_1-1_BN_1/moving_mean", "shape": [72], "dtype": "float32"}, {"name": "BLOCK_1-1_BN_1/moving_variance", "shape": [72], "dtype": "float32"}, {"name": "BLOCK_1-1_BN_2/gamma", "shape": [72], "dtype": "float32"}, {"name": "BLOCK_1-1_BN_2/beta", "shape": [72], "dtype": "float32"}, {"name": "BLOCK_1-1_BN_2/moving_mean", "shape": [72], "dtype": "float32"}, {"name": "BLOCK_1-1_BN_2/moving_variance", "shape": [72], "dtype": "float32"}, {"name": "BLOCK_1-1_CONV_1/kernel", "shape": [1, 1, 24, 72], "dtype": "float32"}, {"name": "BLOCK_1-1_CONV_2/depthwise_kernel", "shape": [3, 3, 72, 1], "dtype": "float32"}, {"name": "BLOCK_1-1_CONV_3/kernel", "shape": [1, 1, 72, 36], "dtype": "float32"}, {"name": "BLOCK_1-2_BN_1/gamma", "shape": [72], "dtype": "float32"}, {"name": "BLOCK_1-2_BN_1/beta", "shape": [72], "dtype": "float32"}, {"name": "BLOCK_1-2_BN_1/moving_mean", "shape": [72], "dtype": "float32"}, {"name": "BLOCK_1-2_BN_1/moving_variance", "shape": [72], "dtype": "float32"}, {"name": "BLOCK_1-2_BN_2/gamma", "shape": [72], "dtype": "float32"}, {"name": "BLOCK_1-2_BN_2/beta", "shape": [72], "dtype": "float32"}, {"name": "BLOCK_1-2_BN_2/moving_mean", "shape": [72], "dtype": "float32"}, {"name": "BLOCK_1-2_BN_2/moving_variance", "shape": [72], "dtype": "float32"}, {"name": "BLOCK_1-2_CONV_1/kernel", "shape": [1, 1, 36, 72], "dtype": "float32"}, {"name": "BLOCK_1-2_CONV_2/depthwise_kernel", "shape": [3, 3, 72, 1], "dtype": "float32"}, {"name": "BLOCK_1-2_CONV_3/kernel", "shape": [1, 1, 72, 36], "dtype": "float32"}, {"name": "BLOCK_1-3_BN_1/gamma", "shape": [72], "dtype": "float32"}, {"name": "BLOCK_1-3_BN_1/beta", "shape": [72], "dtype": "float32"}, {"name": "BLOCK_1-3_BN_1/moving_mean", "shape": [72], "dtype": "float32"}, {"name": "BLOCK_1-3_BN_1/moving_variance", "shape": [72], "dtype": "float32"}, {"name": "BLOCK_1-3_BN_2/gamma", "shape": [72], "dtype": "float32"}, {"name": "BLOCK_1-3_BN_2/beta", "shape": [72], "dtype": "float32"}, {"name": "BLOCK_1-3_BN_2/moving_mean", "shape": [72], "dtype": "float32"}, {"name": "BLOCK_1-3_BN_2/moving_variance", "shape": [72], "dtype": "float32"}, {"name": "BLOCK_1-3_CONV_1/kernel", "shape": [1, 1, 36, 72], "dtype": "float32"}, {"name": "BLOCK_1-3_CONV_2/depthwise_kernel", "shape": [3, 3, 72, 1], "dtype": "float32"}, {"name": "BLOCK_1-3_CONV_3/kernel", "shape": [1, 1, 72, 36], "dtype": "float32"}, {"name": "BLOCK_2-1_BN_1/gamma", "shape": [288], "dtype": "float32"}, {"name": "BLOCK_2-1_BN_1/beta", "shape": [288], "dtype": "float32"}, {"name": "BLOCK_2-1_BN_1/moving_mean", "shape": [288], "dtype": "float32"}, {"name": "BLOCK_2-1_BN_1/moving_variance", "shape": [288], "dtype": "float32"}, {"name": "BLOCK_2-1_BN_2/gamma", "shape": [288], "dtype": "float32"}, {"name": "BLOCK_2-1_BN_2/beta", "shape": [288], "dtype": "float32"}, {"name": "BLOCK_2-1_BN_2/moving_mean", "shape": [288], "dtype": "float32"}, {"name": "BLOCK_2-1_BN_2/moving_variance", "shape": [288], "dtype": "float32"}, {"name": "BLOCK_2-1_CONV_1/kernel", "shape": [1, 1, 36, 288], "dtype": "float32"}, {"name": "BLOCK_2-1_CONV_2/depthwise_kernel", "shape": [3, 3, 288, 1], "dtype": "float32"}, {"name": "BLOCK_2-1_CONV_3/kernel", "shape": [1, 1, 288, 72], "dtype": "float32"}, {"name": "BLOCK_2-1_SE_CONV_1/kernel", "shape": [1, 1, 288, 18], "dtype": "float32"}, {"name": "BLOCK_2-1_SE_CONV_2/kernel", "shape": [1, 1, 18, 288], "dtype": "float32"}, {"name": "BLOCK_2-2_BN_1/gamma", "shape": [288], "dtype": "float32"}, {"name": "BLOCK_2-2_BN_1/beta", "shape": [288], "dtype": "float32"}, {"name": "BLOCK_2-2_BN_1/moving_mean", "shape": [288], "dtype": "float32"}, {"name": "BLOCK_2-2_BN_1/moving_variance", "shape": [288], "dtype": "float32"}, {"name": "BLOCK_2-2_BN_2/gamma", "shape": [288], "dtype": "float32"}, {"name": "BLOCK_2-2_BN_2/beta", "shape": [288], "dtype": "float32"}, {"name": "BLOCK_2-2_BN_2/moving_mean", "shape": [288], "dtype": "float32"}, {"name": "BLOCK_2-2_BN_2/moving_variance", "shape": [288], "dtype": "float32"}, {"name": "BLOCK_2-2_CONV_1/kernel", "shape": [1, 1, 72, 288], "dtype": "float32"}, {"name": "BLOCK_2-2_CONV_2/depthwise_kernel", "shape": [3, 3, 288, 1], "dtype": "float32"}, {"name": "BLOCK_2-2_CONV_3/kernel", "shape": [1, 1, 288, 72], "dtype": "float32"}, {"name": "BLOCK_2-2_SE_CONV_1/kernel", "shape": [1, 1, 288, 18], "dtype": "float32"}, {"name": "BLOCK_2-2_SE_CONV_2/kernel", "shape": [1, 1, 18, 288], "dtype": "float32"}, {"name": "BLOCK_2-3_BN_1/gamma", "shape": [288], "dtype": "float32"}, {"name": "BLOCK_2-3_BN_1/beta", "shape": [288], "dtype": "float32"}, {"name": "BLOCK_2-3_BN_1/moving_mean", "shape": [288], "dtype": "float32"}, {"name": "BLOCK_2-3_BN_1/moving_variance", "shape": [288], "dtype": "float32"}, {"name": "BLOCK_2-3_BN_2/gamma", "shape": [288], "dtype": "float32"}, {"name": "BLOCK_2-3_BN_2/beta", "shape": [288], "dtype": "float32"}, {"name": "BLOCK_2-3_BN_2/moving_mean", "shape": [288], "dtype": "float32"}, {"name": "BLOCK_2-3_BN_2/moving_variance", "shape": [288], "dtype": "float32"}, {"name": "BLOCK_2-3_CONV_1/kernel", "shape": [1, 1, 72, 288], "dtype": "float32"}, {"name": "BLOCK_2-3_CONV_2/depthwise_kernel", "shape": [3, 3, 288, 1], "dtype": "float32"}, {"name": "BLOCK_2-3_CONV_3/kernel", "shape": [1, 1, 288, 72], "dtype": "float32"}, {"name": "BLOCK_2-3_SE_CONV_1/kernel", "shape": [1, 1, 288, 18], "dtype": "float32"}, {"name": "BLOCK_2-3_SE_CONV_2/kernel", "shape": [1, 1, 18, 288], "dtype": "float32"}, {"name": "BLOCK_2-4_BN_1/gamma", "shape": [288], "dtype": "float32"}, {"name": "BLOCK_2-4_BN_1/beta", "shape": [288], "dtype": "float32"}, {"name": "BLOCK_2-4_BN_1/moving_mean", "shape": [288], "dtype": "float32"}, {"name": "BLOCK_2-4_BN_1/moving_variance", "shape": [288], "dtype": "float32"}, {"name": "BLOCK_2-4_BN_2/gamma", "shape": [288], "dtype": "float32"}, {"name": "BLOCK_2-4_BN_2/beta", "shape": [288], "dtype": "float32"}, {"name": "BLOCK_2-4_BN_2/moving_mean", "shape": [288], "dtype": "float32"}, {"name": "BLOCK_2-4_BN_2/moving_variance", "shape": [288], "dtype": "float32"}, {"name": "BLOCK_2-4_CONV_1/kernel", "shape": [1, 1, 72, 288], "dtype": "float32"}, {"name": "BLOCK_2-4_CONV_2/depthwise_kernel", "shape": [3, 3, 288, 1], "dtype": "float32"}, {"name": "BLOCK_2-4_CONV_3/kernel", "shape": [1, 1, 288, 72], "dtype": "float32"}, {"name": "BLOCK_2-4_SE_CONV_1/kernel", "shape": [1, 1, 288, 18], "dtype": "float32"}, {"name": "BLOCK_2-4_SE_CONV_2/kernel", "shape": [1, 1, 18, 288], "dtype": "float32"}, {"name": "BLOCK_3-1_BN_1/gamma", "shape": [864], "dtype": "float32"}, {"name": "BLOCK_3-1_BN_1/beta", "shape": [864], "dtype": "float32"}, {"name": "BLOCK_3-1_BN_1/moving_mean", "shape": [864], "dtype": "float32"}, {"name": "BLOCK_3-1_BN_1/moving_variance", "shape": [864], "dtype": "float32"}, {"name": "BLOCK_3-1_BN_2/gamma", "shape": [864], "dtype": "float32"}, {"name": "BLOCK_3-1_BN_2/beta", "shape": [864], "dtype": "float32"}, {"name": "BLOCK_3-1_BN_2/moving_mean", "shape": [864], "dtype": "float32"}, {"name": "BLOCK_3-1_BN_2/moving_variance", "shape": [864], "dtype": "float32"}, {"name": "BLOCK_3-1_CONV_1/kernel", "shape": [1, 1, 72, 864], "dtype": "float32"}, {"name": "BLOCK_3-1_CONV_2/depthwise_kernel", "shape": [3, 3, 864, 1], "dtype": "float32"}, {"name": "BLOCK_3-1_CONV_3/kernel", "shape": [1, 1, 864, 108], "dtype": "float32"}, {"name": "BLOCK_3-1_SE_CONV_1/kernel", "shape": [1, 1, 864, 27], "dtype": "float32"}, {"name": "BLOCK_3-1_SE_CONV_2/kernel", "shape": [1, 1, 27, 864], "dtype": "float32"}, {"name": "BLOCK_3-2_BN_1/gamma", "shape": [864], "dtype": "float32"}, {"name": "BLOCK_3-2_BN_1/beta", "shape": [864], "dtype": "float32"}, {"name": "BLOCK_3-2_BN_1/moving_mean", "shape": [864], "dtype": "float32"}, {"name": "BLOCK_3-2_BN_1/moving_variance", "shape": [864], "dtype": "float32"}, {"name": "BLOCK_3-2_BN_2/gamma", "shape": [864], "dtype": "float32"}, {"name": "BLOCK_3-2_BN_2/beta", "shape": [864], "dtype": "float32"}, {"name": "BLOCK_3-2_BN_2/moving_mean", "shape": [864], "dtype": "float32"}, {"name": "BLOCK_3-2_BN_2/moving_variance", "shape": [864], "dtype": "float32"}, {"name": "BLOCK_3-2_CONV_1/kernel", "shape": [1, 1, 108, 864], "dtype": "float32"}, {"name": "BLOCK_3-2_CONV_2/depthwise_kernel", "shape": [3, 3, 864, 1], "dtype": "float32"}, {"name": "BLOCK_3-2_CONV_3/kernel", "shape": [1, 1, 864, 108], "dtype": "float32"}, {"name": "BLOCK_3-2_SE_CONV_1/kernel", "shape": [1, 1, 864, 27], "dtype": "float32"}, {"name": "BLOCK_3-2_SE_CONV_2/kernel", "shape": [1, 1, 27, 864], "dtype": "float32"}, {"name": "BLOCK_3-3_BN_1/gamma", "shape": [864], "dtype": "float32"}, {"name": "BLOCK_3-3_BN_1/beta", "shape": [864], "dtype": "float32"}, {"name": "BLOCK_3-3_BN_1/moving_mean", "shape": [864], "dtype": "float32"}, {"name": "BLOCK_3-3_BN_1/moving_variance", "shape": [864], "dtype": "float32"}, {"name": "BLOCK_3-3_BN_2/gamma", "shape": [864], "dtype": "float32"}, {"name": "BLOCK_3-3_BN_2/beta", "shape": [864], "dtype": "float32"}, {"name": "BLOCK_3-3_BN_2/moving_mean", "shape": [864], "dtype": "float32"}, {"name": "BLOCK_3-3_BN_2/moving_variance", "shape": [864], "dtype": "float32"}, {"name": "BLOCK_3-3_CONV_1/kernel", "shape": [1, 1, 108, 864], "dtype": "float32"}, {"name": "BLOCK_3-3_CONV_2/depthwise_kernel", "shape": [3, 3, 864, 1], "dtype": "float32"}, {"name": "BLOCK_3-3_CONV_3/kernel", "shape": [1, 1, 864, 108], "dtype": "float32"}, {"name": "BLOCK_3-3_SE_CONV_1/kernel", "shape": [1, 1, 864, 27], "dtype": "float32"}, {"name": "BLOCK_3-3_SE_CONV_2/kernel", "shape": [1, 1, 27, 864], "dtype": "float32"}, {"name": "BLOCK_3-4_BN_1/gamma", "shape": [864], "dtype": "float32"}, {"name": "BLOCK_3-4_BN_1/beta", "shape": [864], "dtype": "float32"}, {"name": "BLOCK_3-4_BN_1/moving_mean", "shape": [864], "dtype": "float32"}, {"name": "BLOCK_3-4_BN_1/moving_variance", "shape": [864], "dtype": "float32"}, {"name": "BLOCK_3-4_BN_2/gamma", "shape": [864], "dtype": "float32"}, {"name": "BLOCK_3-4_BN_2/beta", "shape": [864], "dtype": "float32"}, {"name": "BLOCK_3-4_BN_2/moving_mean", "shape": [864], "dtype": "float32"}, {"name": "BLOCK_3-4_BN_2/moving_variance", "shape": [864], "dtype": "float32"}, {"name": "BLOCK_3-4_CONV_1/kernel", "shape": [1, 1, 108, 864], "dtype": "float32"}, {"name": "BLOCK_3-4_CONV_2/depthwise_kernel", "shape": [3, 3, 864, 1], "dtype": "float32"}, {"name": "BLOCK_3-4_CONV_3/kernel", "shape": [1, 1, 864, 108], "dtype": "float32"}, {"name": "BLOCK_3-4_SE_CONV_1/kernel", "shape": [1, 1, 864, 27], "dtype": "float32"}, {"name": "BLOCK_3-4_SE_CONV_2/kernel", "shape": [1, 1, 27, 864], "dtype": "float32"}, {"name": "BLOCK_3-5_BN_1/gamma", "shape": [864], "dtype": "float32"}, {"name": "BLOCK_3-5_BN_1/beta", "shape": [864], "dtype": "float32"}, {"name": "BLOCK_3-5_BN_1/moving_mean", "shape": [864], "dtype": "float32"}, {"name": "BLOCK_3-5_BN_1/moving_variance", "shape": [864], "dtype": "float32"}, {"name": "BLOCK_3-5_BN_2/gamma", "shape": [864], "dtype": "float32"}, {"name": "BLOCK_3-5_BN_2/beta", "shape": [864], "dtype": "float32"}, {"name": "BLOCK_3-5_BN_2/moving_mean", "shape": [864], "dtype": "float32"}, {"name": "BLOCK_3-5_BN_2/moving_variance", "shape": [864], "dtype": "float32"}, {"name": "BLOCK_3-5_CONV_1/kernel", "shape": [1, 1, 108, 864], "dtype": "float32"}, {"name": "BLOCK_3-5_CONV_2/depthwise_kernel", "shape": [3, 3, 864, 1], "dtype": "float32"}, {"name": "BLOCK_3-5_CONV_3/kernel", "shape": [1, 1, 864, 108], "dtype": "float32"}, {"name": "BLOCK_3-5_SE_CONV_1/kernel", "shape": [1, 1, 864, 27], "dtype": "float32"}, {"name": "BLOCK_3-5_SE_CONV_2/kernel", "shape": [1, 1, 27, 864], "dtype": "float32"}, {"name": "BLOCK_4-1_BN_1/gamma", "shape": [1536], "dtype": "float32"}, {"name": "BLOCK_4-1_BN_1/beta", "shape": [1536], "dtype": "float32"}, {"name": "BLOCK_4-1_BN_1/moving_mean", "shape": [1536], "dtype": "float32"}, {"name": "BLOCK_4-1_BN_1/moving_variance", "shape": [1536], "dtype": "float32"}, {"name": "BLOCK_4-1_BN_2/gamma", "shape": [1536], "dtype": "float32"}, {"name": "BLOCK_4-1_BN_2/beta", "shape": [1536], "dtype": "float32"}, {"name": "BLOCK_4-1_BN_2/moving_mean", "shape": [1536], "dtype": "float32"}, {"name": "BLOCK_4-1_BN_2/moving_variance", "shape": [1536], "dtype": "float32"}, {"name": "BLOCK_4-1_CONV_1/kernel", "shape": [1, 1, 108, 1536], "dtype": "float32"}, {"name": "BLOCK_4-1_CONV_2/depthwise_kernel", "shape": [3, 3, 1536, 1], "dtype": "float32"}, {"name": "BLOCK_4-1_CONV_3/kernel", "shape": [1, 1, 1536, 192], "dtype": "float32"}, {"name": "BLOCK_4-1_SE_CONV_1/kernel", "shape": [1, 1, 1536, 48], "dtype": "float32"}, {"name": "BLOCK_4-1_SE_CONV_2/kernel", "shape": [1, 1, 48, 1536], "dtype": "float32"}, {"name": "BLOCK_4-2_BN_1/gamma", "shape": [1536], "dtype": "float32"}, {"name": "BLOCK_4-2_BN_1/beta", "shape": [1536], "dtype": "float32"}, {"name": "BLOCK_4-2_BN_1/moving_mean", "shape": [1536], "dtype": "float32"}, {"name": "BLOCK_4-2_BN_1/moving_variance", "shape": [1536], "dtype": "float32"}, {"name": "BLOCK_4-2_BN_2/gamma", "shape": [1536], "dtype": "float32"}, {"name": "BLOCK_4-2_BN_2/beta", "shape": [1536], "dtype": "float32"}, {"name": "BLOCK_4-2_BN_2/moving_mean", "shape": [1536], "dtype": "float32"}, {"name": "BLOCK_4-2_BN_2/moving_variance", "shape": [1536], "dtype": "float32"}, {"name": "BLOCK_4-2_CONV_1/kernel", "shape": [1, 1, 192, 1536], "dtype": "float32"}, {"name": "BLOCK_4-2_CONV_2/depthwise_kernel", "shape": [3, 3, 1536, 1], "dtype": "float32"}, {"name": "BLOCK_4-2_CONV_3/kernel", "shape": [1, 1, 1536, 192], "dtype": "float32"}, {"name": "BLOCK_4-2_SE_CONV_1/kernel", "shape": [1, 1, 1536, 48], "dtype": "float32"}, {"name": "BLOCK_4-2_SE_CONV_2/kernel", "shape": [1, 1, 48, 1536], "dtype": "float32"}, {"name": "BLOCK_4-3_BN_1/gamma", "shape": [1536], "dtype": "float32"}, {"name": "BLOCK_4-3_BN_1/beta", "shape": [1536], "dtype": "float32"}, {"name": "BLOCK_4-3_BN_1/moving_mean", "shape": [1536], "dtype": "float32"}, {"name": "BLOCK_4-3_BN_1/moving_variance", "shape": [1536], "dtype": "float32"}, {"name": "BLOCK_4-3_BN_2/gamma", "shape": [1536], "dtype": "float32"}, {"name": "BLOCK_4-3_BN_2/beta", "shape": [1536], "dtype": "float32"}, {"name": "BLOCK_4-3_BN_2/moving_mean", "shape": [1536], "dtype": "float32"}, {"name": "BLOCK_4-3_BN_2/moving_variance", "shape": [1536], "dtype": "float32"}, {"name": "BLOCK_4-3_CONV_1/kernel", "shape": [1, 1, 192, 1536], "dtype": "float32"}, {"name": "BLOCK_4-3_CONV_2/depthwise_kernel", "shape": [3, 3, 1536, 1], "dtype": "float32"}, {"name": "BLOCK_4-3_CONV_3/kernel", "shape": [1, 1, 1536, 192], "dtype": "float32"}, {"name": "BLOCK_4-3_SE_CONV_1/kernel", "shape": [1, 1, 1536, 48], "dtype": "float32"}, {"name": "BLOCK_4-3_SE_CONV_2/kernel", "shape": [1, 1, 48, 1536], "dtype": "float32"}, {"name": "BLOCK_4-4_BN_1/gamma", "shape": [1536], "dtype": "float32"}, {"name": "BLOCK_4-4_BN_1/beta", "shape": [1536], "dtype": "float32"}, {"name": "BLOCK_4-4_BN_1/moving_mean", "shape": [1536], "dtype": "float32"}, {"name": "BLOCK_4-4_BN_1/moving_variance", "shape": [1536], "dtype": "float32"}, {"name": "BLOCK_4-4_BN_2/gamma", "shape": [1536], "dtype": "float32"}, {"name": "BLOCK_4-4_BN_2/beta", "shape": [1536], "dtype": "float32"}, {"name": "BLOCK_4-4_BN_2/moving_mean", "shape": [1536], "dtype": "float32"}, {"name": "BLOCK_4-4_BN_2/moving_variance", "shape": [1536], "dtype": "float32"}, {"name": "BLOCK_4-4_CONV_1/kernel", "shape": [1, 1, 192, 1536], "dtype": "float32"}, {"name": "BLOCK_4-4_CONV_2/depthwise_kernel", "shape": [3, 3, 1536, 1], "dtype": "float32"}, {"name": "BLOCK_4-4_CONV_3/kernel", "shape": [1, 1, 1536, 192], "dtype": "float32"}, {"name": "BLOCK_4-4_SE_CONV_1/kernel", "shape": [1, 1, 1536, 48], "dtype": "float32"}, {"name": "BLOCK_4-4_SE_CONV_2/kernel", "shape": [1, 1, 48, 1536], "dtype": "float32"}, {"name": "BNORM_0/gamma", "shape": [24], "dtype": "float32"}, {"name": "BNORM_0/beta", "shape": [24], "dtype": "float32"}, {"name": "BNORM_0/moving_mean", "shape": [24], "dtype": "float32"}, {"name": "BNORM_0/moving_variance", "shape": [24], "dtype": "float32"}, {"name": "BNORM_POST_NOQUANT/gamma", "shape": [192], "dtype": "float32"}, {"name": "BNORM_POST_NOQUANT/beta", "shape": [192], "dtype": "float32"}, {"name": "BNORM_POST_NOQUANT/moving_mean", "shape": [192], "dtype": "float32"}, {"name": "BNORM_POST_NOQUANT/moving_variance", "shape": [192], "dtype": "float32"}, {"name": "BNORM_SPEC_NOQUANT/gamma", "shape": [2], "dtype": "float32"}, {"name": "BNORM_SPEC_NOQUANT/beta", "shape": [2], "dtype": "float32"}, {"name": "BNORM_SPEC_NOQUANT/moving_mean", "shape": [2], "dtype": "float32"}, {"name": "BNORM_SPEC_NOQUANT/moving_variance", "shape": [2], "dtype": "float32"}, {"name": "CLASS_DENSE_LAYER/kernel", "shape": [1024, 6522], "dtype": "float32"}, {"name": "CLASS_DENSE_LAYER/bias", "shape": [6522], "dtype": "float32"}, {"name": "CONV_0/kernel", "shape": [4, 8, 2, 24], "dtype": "float32"}, {"name": "MEL_SPEC1/magnitude_scaling", "shape": [], "dtype": "float32"}, {"name": "MEL_SPEC2/magnitude_scaling", "shape": [], "dtype": "float32"}, {"name": "POOL_0_CONV/kernel", "shape": [1, 1, 48, 24], "dtype": "float32"}, {"name": "POOL_0_CONV/bias", "shape": [24], "dtype": "float32"}, {"name": "POST_BN_1/gamma", "shape": [1024], "dtype": "float32"}, {"name": "POST_BN_1/beta", "shape": [1024], "dtype": "float32"}, {"name": "POST_BN_1/moving_mean", "shape": [1024], "dtype": "float32"}, {"name": "POST_BN_1/moving_variance", "shape": [1024], "dtype": "float32"}, {"name": "POST_CONV_1/kernel", "shape": [3, 3, 192, 1024], "dtype": "float32"}]}]}